cartpole_test/PPO_continuous_solved_ContinuousCartPole-v0.pth (torch, 23695 bytes, 10 tensors)

actor.0.weight f4 [64, 4]
0	0xbef1acd2	-0.47202164
1	0x3ec1cd66	0.3785202
2	0xbf18e665	-0.59726554
3	0xbf160458	-0.5860038
4	0xbecf03fb	-0.40432724
5	0x3f0cda5b	0.55020684
6	0x3ea65991	0.3249021
7	0x3da480b0	0.08032358
8	0x3ca2eb2f	0.019887535
9	0x3e71bbf6	0.23606858
10	0xbf017c9b	-0.5058076
11	0xbeab89e9	-0.33503655
12	0xbf002a51	-0.5006457
13	0x3f064598	0.5244994
14	0x3eb30240	0.34962654
15	0x3e9d19fa	0.3068388
16	0xbe9994e6	-0.29996413
17	0xbedc256e	-0.42997307
18	0x3e7d50fd	0.24737926
19	0x3f1ed1cc	0.62038875
20	0x3cd3fd5d	0.025877649
21	0x3ec7d90f	0.3903279
22	0x3f2ae586	0.66756475
23	0x3f0d50cc	0.5520141
24	0x3e5d04ee	0.21583912
25	0x3eb6270f	0.35576674
26	0x3e83d703	0.25749978
27	0x3f03eb46	0.51530874
28	0xbec1909f	-0.3780565
29	0xbea23a0d	-0.31684914
30	0xbf481c1d	-0.781679
31	0xbee9a5bd	-0.4563426
32	0xbd3a9413	-0.04555137
33	0xbe79b897	-0.24386822
34	0x3f09d6f4	0.5384362
35	0x3d0cfbe1	0.034419898
36	0x3ef33116	0.47498387
37	0xbe22ea7c	-0.15909761
38	0x3f4fb909	0.81141716
39	0xbd9d2df8	-0.076747835
40	0x3c106a30	0.00881438
41	0x3ee39b26	0.44454306
42	0x3f5607bb	0.83605546
43	0x3e526992	0.20548084
44	0xbd2a618b	-0.04159693
45	0xbece3cb4	-0.40280688
46	0xbe736c15	-0.23771699
47	0xbe956fb7	-0.29186794
48	0xbe90de5f	-0.28294656
49	0xbedeca29	-0.4351361
50	0xbbe55b0d	-0.0069993795
51	0x3f091e06	0.5356144
52	0x3eb0cac4	0.34529698
53	0xbe9ee7bc	-0.31036174
54	0xbe9f9742	-0.31170088
55	0xbf00f751	-0.50377375
56	0x3e886570	0.2663989
57	0x3da27f58	0.07934445
58	0x3f2817de	0.6566142
59	0x3d8a0a69	0.06740267
60	0xbe279b99	-0.1636795
61	0x3e5c75b4	0.21529275
62	0xbe4d365c	-0.20040268
63	0xbf34e98f	-0.7066888
64	0x3ea4b906	0.32172412
65	0x3e6da527	0.23207532
66	0x3f2674f4	0.65022206
67	0x3e218471	0.15773179
68	0xbd9c1390	-0.07620919
69	0x3eede47a	0.46463376
70	0x3f36523b	0.71219224
71	0x3d97f691	0.07420076
72	0xbe2f1109	-0.17096342
73	0x3eeb8f15	0.460076
74	0xbe97d879	-0.29657343
75	0xbf35802e	-0.7089871
76	0x3dc908bd	0.0981612
77	0x3e6f3647	0.23360549
78	0xbede8627	-0.43461725
79	0xbeaf37fe	-0.34222406
80	0xbeabd973	-0.33564338
81	0x3e603b5c	0.21897644
82	0x3f1015b5	0.5628312
83	0x3e442939	0.1915635
84	0xbe8ee1d8	-0.2790668
85	0x3d166593	0.036717962
86	0x3f35e417	0.7105116
87	0xbeb60c3f	-0.35556218
88	0xbe8385f3	-0.25688133
89	0xbe0b4bcd	-0.13603134
90	0xbedf45ee	-0.4360804
91	0xbd29124b	-0.04127721
92	0x3d3302b8	0.043703765
93	0xbeecd568	-0.46256566
94	0xbd2e102d	-0.042495895
95	0xbf23a541	-0.6392403
96	0xbeea3d96	-0.4575011
97	0xbe64f37e	-0.2235851
98	0x3f06241e	0.5239886
99	0x3f3226ce	0.6959046
100	0x3eca9dbf	0.39573476
101	0xbc7c0492	-0.015381949
102	0x3f3416d3	0.70347327
103	0xbda9549a	-0.082680896
104	0x3e705e33	0.23473434
105	0x3d94dd12	0.07268728
106	0x3efecb0f	0.49764296
107	0x3ed4bc4f	0.41549918
108	0x3ea685f6	0.3252408
109	0xbed6e83c	-0.41974056
110	0x3f3da1ff	0.7407531
111	0xbd0ee4a4	-0.034886017
112	0xbe8205fd	-0.25395194
113	0xbd57daf6	-0.05269905
114	0x3e5c2888	0.21499836
115	0xbeda695c	-0.42658508
116	0xbec7f044	-0.39050496
117	0x3d37fcc1	0.04491878
118	0xbed311a0	-0.41224384
119	0xbea5e9d5	-0.32404962
120	0x3eaad115	0.33362642
121	0x3ea1aef8	0.31578803
122	0x3f488d21	0.78340346
123	0x3e8bb846	0.27289027
124	0x3effacca	0.49936515
125	0x3ed7e1dd	0.42164508
126	0xbf3b2fbb	-0.73119706
127	0x3e60e009	0.21960463
128	0xbf0f66da	-0.56016314
129	0xbe472456	-0.19447455
130	0x3f59dd9d	0.8510378
131	0x3f0e1e5e	0.55515087
132	0x3e6a1449	0.228593
133	0xbe9f9ead	-0.31175748
134	0xbf0ca2e4	-0.5493605
135	0xbf311e8e	-0.6918725
136	0x3f1bb4e0	0.6082287
137	0x3e215c55	0.15757878
138	0xbec99937	-0.39374706
139	0xbf08a3ac	-0.53374743
140	0x3e9f7ed6	0.31151456
141	0x3e265d69	0.1624657
142	0xbc9954e1	-0.018717231
143	0x3bc3701c	0.005964292
144	0x3d8ac803	0.067764305
145	0x3e8f62cb	0.2800506
146	0x3e672911	0.2257426
147	0x3f10a1a1	0.56496626
148	0xbcb7f2e3	-0.022454685
149	0xbd8e2fb9	-0.06942696
150	0xbe6fd85e	-0.23422381
151	0xbdab39ea	-0.083606556
152	0xbebe9ee1	-0.3723059
153	0x3d32926c	0.04359667
154	0xbede5b3f	-0.4342899
155	0xbed3b464	-0.41348565
156	0x3e4181bc	0.18897146
157	0xbd95ca99	-0.07314033
158	0xbe9b37e3	-0.30316076
159	0x3e878756	0.2647044
160	0xbe98e4b9	-0.29862002
161	0x3e9a3826	0.30120963
162	0xbdca3cc5	-0.09874872
163	0x3e95e454	0.29275763
164	0xbebcd940	-0.368845
165	0xbedc6751	-0.43047574
166	0x3f6dc65f	0.92880815
167	0x3f362391	0.7114802
168	0xbe6dec93	-0.23234777
169	0xbec74250	-0.3891778
170	0xbebd31f9	-0.3695219
171	0xbecd4c93	-0.40097484
172	0xbe5f4f4a	-0.2180759
173	0xbd7cc642	-0.06171251
174	0xbf524cdf	-0.82148546
175	0x3e016421	0.12635852
176	0xbe9a16df	-0.30095574
177	0x3dd69352	0.10477318
178	0xbd8c023f	-0.06836366
179	0xbeef390c	-0.4672321
180	0xbd5db393	-0.054126333
181	0x3e9db113	0.3079916
182	0x3e95733b	0.29189476
183	0x3d5bc245	0.053652067
184	0xbea1544d	-0.3150963
185	0x3e2bffd4	0.1679681
186	0xbf03f4e5	-0.51545554
187	0x3e35f729	0.17770065
188	0x3e046fd6	0.12933287
189	0xbe92f193	-0.28699932
190	0xbe9e03fb	-0.30862412
191	0xbb839984	-0.004016103
192	0xbee4ba76	-0.44673508
193	0xbee10964	-0.43952477
194	0xbe8306c5	-0.25591102
195	0xbf2c365f	-0.67270464
196	0x3c1385e8	0.009004094
197	0xbe87aab7	-0.26497433
198	0x3d1668a7	0.036720898
199	0xbe379653	-0.17928438
200	0xbeab6eb1	-0.33482888
201	0x3edf6686	0.43632907
202	0xbf3a7ab5	-0.72843486
203	0xbf1f5a6d	-0.62247354
204	0x3d547da5	0.051877636
205	0xbe43dd2f	-0.19127344
206	0x3f1f3da2	0.6220342
207	0x3f0880c9	0.5332151
208	0xbee21f69	-0.4416459
209	0x3dff30b7	0.124604635
210	0xbef3d343	-0.47622117
211	0xbec9f662	-0.39445788
212	0x3f043ec9	0.516583
213	0xbd0e90aa	-0.03480593
214	0xbf5f4100	-0.8720856
215	0xbed1a95a	-0.40949517
216	0xbea27237	-0.31727764
217	0xbb1d680c	-0.0024018316
218	0xbd846227	-0.064640336
219	0xbf1a9b15	-0.60392886
220	0xbec3364c	-0.38127363
221	0xbd6ca49a	-0.057774164
222	0xbf394ba0	-0.7238102
223	0x3e87cfce	0.2652573
224	0x3e7641db	0.2404856
225	0xbd1e76f7	-0.038687672
226	0xbf2800b6	-0.65626085
227	0x3e57fc02	0.21092227
228	0xbefbf59c	-0.49210823
229	0x3e834947	0.25641844
230	0x3e3ce56d	0.18446894
231	0x3e46580d	0.19369526
232	0x3e9aca6f	0.3023257
233	0x3ef1b6ae	0.47209686
234	0x3e83039d	0.25588694
235	0x3d556fd9	0.05210862
236	0xbeca60d3	-0.39526996
237	0xbd59d68e	-0.05318313
238	0x3df13c1f	0.11779045
239	0x3e89f45d	0.26944247
240	0x3f28ccd1	0.65937525
241	0x3ef84305	0.48488632
242	0xbf11bead	-0.56931573
243	0xbedfa2de	-0.43678945
244	0xbf07286d	-0.5279606
245	0x3e9c8a28	0.30574155
246	0x3f25a10d	0.6469887
247	0x3e3c675e	0.18398806
248	0x3f09cd3c	0.5382879
249	0x3ee3ff3d	0.4453067
250	0xbc94f3b4	-0.018182613
251	0x3da02212	0.078189984
252	0x3ee83ea5	0.45360294
253	0xbe57d764	-0.21078259
254	0x3f3b3d6c	0.731406
255	0x3f36f794	0.71471524

actor.0.bias f4 [64]
0	0xbd9de469	-0.077095814
1	0x3e5f1779	0.21786298
2	0x3ec8d95e	0.39228338
3	0xbeb3afd0	-0.35095072
4	0xbe2ca1ae	-0.16858551
5	0x3ec07834	0.37591708
6	0xbe724ec0	-0.23662853
7	0xbb362964	-0.0027795667
8	0x3ed0c807	0.4077761
9	0x3d3797fc	0.044822678
10	0x3d3ed0cf	0.046585854
11	0x3e768dfe	0.24077603
12	0x3ee1a130	0.4406829
13	0xbe70c7e0	-0.23513746
14	0x3ebf3c86	0.37350863
15	0x3b42fff8	0.002975462
16	0x3ee4e58a	0.44706374
17	0xbd0551ad	-0.032548595
18	0x3ec7e8c6	0.3904478
19	0x3e49c862	0.19705346
20	0x3d99dc84	0.07512763
21	0x3e7cf843	0.2470408
22	0xbe92065e	-0.28520483
23	0x3ed70199	0.41993406
24	0xbe30d6f4	-0.17269498
25	0x3e194b97	0.14970241
26	0xbe8372d9	-0.2567356
27	0xbec06486	-0.37576693
28	0xbe9932d7	-0.299216
29	0x3c3524d2	0.011056142
30	0x3d84018e	0.06445609
31	0xbcb32e5e	-0.021872696
32	0xbe6d4577	-0.2317103
33	0xbc989cc4	-0.01862944
34	0xbc86be12	-0.016448054
35	0x3eb668c7	0.35626814
36	0xbdc1c270	-0.09460914
37	0x3e8ce0c2	0.27515227
38	0x3ee792d4	0.45229208
39	0x3ee4bb8c	0.44674337
40	0x3e492065	0.19641264
41	0x3e299397	0.16560207
42	0xbe88b5ab	-0.26701102
43	0x3e94d15b	0.29065976
44	0xbe5ab6e1	-0.21358825
45	0xbddea41d	-0.10871146
46	0x3dc22d4e	0.094812974
47	0xbe2dff65	-0.16991957
48	0x3e51b826	0.20480403
49	0x3efa1b25	0.48848835
50	0x3eb92435	0.36160436
51	0xbd5968ef	-0.053078588
52	0xbebd8adf	-0.37020013
53	0x3e12bfa3	0.14330916
54	0xbdcd6463	-0.10028913
55	0x3edf49b3	0.43610916
56	0xbeddf5ba	-0.43351537
57	0xbe863f55	-0.26220194
58	0xbe823a04	-0.25434887
59	0x3d8064f9	0.06269259
60	0xbe6b4a39	-0.22977532
61	0xbec8b3cd	-0.39199677
62	0x3ea929dc	0.3303975
63	0x3d9dfc9c	0.07714197

actor.2.weight f4 [32, 64]
0	0xbe6d4d05	-0.23173912
1	0xbcc80f7b	-0.024421444
2	0xbd2fbe90	-0.042906344
3	0x3dfbc60a	0.12293632
4	0x3e325a03	0.17417149
5	0x3ccb8183	0.02484203
6	0x3d0ab69e	0.033865564
7	0xbe812b37	-0.25228283
8	0x3d89bc30	0.06725347
9	0x3e429908	0.1900369
10	0x3e4b5353	0.19856004
11	0x3dac0a63	0.084004186
12	0x3e0d376c	0.13790673
13	0x3bb87c0d	0.0056300224
14	0x3dcb379a	0.099227145
15	0xbe664648	-0.22487748
16	0xbca70893	-0.02038983
17	0x3e810815	0.2520148
18	0xbe0a23c7	-0.1349021
19	0xbde16290	-0.110051274
20	0x3e4a711b	0.19769709
21	0xbda1d1b9	-0.079013295
22	0x3daedec5	0.08538584
23	0x3d350cf0	0.04420179
24	0x3c40b384	0.01176155
25	0x3e2f6edc	0.17132133
26	0xbb6300aa	-0.0034637847
27	0xbd9c45cf	-0.076305024
28	0xbd794810	-0.06085974
29	0xbddc6c26	-0.10762815
30	0x3e5b5375	0.21418555
31	0xbdd9e9dd	-0.10640309
32	0x3e71e9e2	0.23624375
33	0xbe3ce8c0	-0.18448162
34	0xbe34b44c	-0.17646903
35	0xbd947199	-0.072482295
36	0x3e30f30b	0.17280214
37	0xbd1f4178	-0.038880795
38	0xbc0002be	-0.007813154
39	0xbd9e17ad	-0.077193595
40	0xbd81914f	-0.063265435
41	0x3e315dca	0.17320934
42	0xbcf097f8	-0.02936934
43	0x3daff131	0.085909255
44	0x3d4e8b41	0.05042577
45	0xbc91782e	-0.017757501
46	0xbd107287	-0.03526547
47	0xbd08a839	-0.033363555
48	0xbc591839	-0.013250404
49	0x3dd91cfc	0.106012315
50	0xbdbf6115	-0.09344689
51	0x3e2c8c0c	0.16850299
52	0x3d966ccf	0.07344972
53	0xbd3ede27	-0.04659858
54	0xbda34823	-0.07972743
55	0x3db7202f	0.089416854
56	0xbdeb10b2	-0.11477794
57	0x3e05a025	0.13049372
58	0x3d972cad	0.07381568
59	0x3e53c1b6	0.20679364
60	0xbe64ad34	-0.22331697
61	0x3e0b0914	0.13577682
62	0xbd595fa3	-0.053069722
63	0x3e8b8971	0.27253297
64	0xbcb63fb1	-0.022247167
65	0x3d9907ca	0.07472189
66	0x3d4dee47	0.050276067
67	0x3d7496a5	0.05971398
68	0x3cecf0d6	0.028923433
69	0x3db42d77	0.08797734
70	0x3dd37afd	0.103261925
71	0xbd71af19	-0.059004877
72	0x3cb15ada	0.021649767
73	0x3e5dac37	0.21647726
74	0x3e284311	0.16431834
75	0x3ba1ea15	0.004941235
76	0xbd4ff41d	-0.050769914
77	0xbdd1f9d1	-0.10252727
78	0x3dd2baad	0.10289512
79	0x3d120536	0.0356495
80	0x3de83db2	0.113398924
81	0x3e60da90	0.21958375
82	0xbe0ebc4e	-0.1393902
83	0xbd3b3299	-0.04570255
84	0x3d80417b	0.062624894
85	0xbd53d9e2	-0.05172146
86	0xbddbcc57	-0.10732334
87	0x3da91920	0.08256745
88	0x3db61b49	0.08891923
89	0x3d8a2d85	0.067469634
90	0x3b01788c	0.001975569
91	0x3d9af875	0.07566921
92	0x3dc3a34c	0.09552631
93	0xbe0f5160	-0.13995886
94	0x3e70ad4f	0.23503612
95	0x3c7302ad	0.014832181
96	0x3dcd7f5e	0.10034059
97	0xbe7d14ad	-0.24714918
98	0xbe5e71e5	-0.21723135
99	0xbd885dc1	-0.06658507
100	0x3dfc5323	0.123205446
101	0xbba3ae66	-0.004995155
102	0x3ce6ed70	0.02818939
103	0xbd59c9c2	-0.053170927
104	0xbd16458e	-0.036687426
105	0x3e194149	0.1496631
106	0xbc8d5cc1	-0.017256143
107	0x3da26778	0.07929891
108	0xbd98ea25	-0.074665345
109	0xbd3eae80	-0.046553135
110	0x3d32b75f	0.043631908
111	0xbd533e93	-0.051573347
112	0xbdb4c35f	-0.088263266
113	0xbded6a09	-0.1159249
114	0xbe0f2bdb	-0.13981573
115	0x3e5fbfe3	0.21850543
116	0x3c917cac	0.017759643
117	0xbd78d366	-0.06074848
118	0xbdb808a2	-0.089860216
119	0xbcd5572e	-0.026042547
120	0xbdc1bfe2	-0.09460427
121	0xbbf9e320	-0.0076259524
122	0x3d8d2141	0.06891108
123	0x3dcc4437	0.099739484
124	0xbcb607fd	-0.022220606
125	0x3d7c1fff	0.06155395
126	0x3d491707	0.049094226
127	0x3d8aa089	0.06768901
128	0x3caccb83	0.021093136
129	0xbddf1dec	-0.10894379
130	0x38becf33	9.0985e-05
131	0xbe28fbbc	-0.16502279
132	0xbd9afa49	-0.07567269
133	0xbe275287	-0.16340075
134	0xbe2dbfc4	-0.16967684
135	0x3e8ad46c	0.2711519
136	0xbbdb15f5	-0.006685967
137	0xbba76e9c	-0.005109621
138	0xbe22dd29	-0.15904678
139	0x3d58b068	0.05290261
140	0x3c923579	0.017847763
141	0x3b817cda	0.003951651
142	0xbce0bde6	-0.0274343
143	0x3e4b144c	0.19831961
144	0x3c8a58f1	0.016888114
145	0xbe4bf123	-0.19916205
146	0x3ded2758	0.1157977
147	0x3e0bdd4e	0.1365864
148	0xbcd82d28	-0.02638872
149	0x3a3fd523	0.00073178316
150	0x3dbedb88	0.09319216
151	0xbd63ce3f	-0.055616613
152	0xbc9e1fa3	-0.019302195
153	0x3d5679e0	0.052362323
154	0xbd0e21b9	-0.03470013
155	0xbc3851bd	-0.011249957
156	0x3c166915	0.009180327
157	0x3e22cc57	0.15898262
158	0xbd469a96	-0.04848727
159	0xbd83a701	-0.06428338
160	0xbdc9c70d	-0.09852419
161	0x3e84b50b	0.25919375
162	0x3bd2e49f	0.006435945
163	0x3d371b9a	0.044704057
164	0xbe4bed1f	-0.19914673
165	0x3e0a44cb	0.13502805
166	0x3c1bda98	0.009512566
167	0xbd965e1f	-0.07342171
168	0xbcc9e3a4	-0.02464468
169	0xbe17cf99	-0.14825286
170	0x3e00a997	0.12564693
171	0x3c5b28cc	0.013376426
172	0x3d055967	0.032555964
173	0x3c466fb3	0.012111592
174	0x3d59053b	0.052983504
175	0xbd2748e9	-0.040841017
176	0x3e22009f	0.1582055
177	0x3ddd071f	0.10792374
178	0x3e2786ba	0.16359988
179	0xbe5778e3	-0.21042208
180	0xbc6dbdde	-0.0145106
181	0xbade1303	-0.0016942922
182	0xbd8e95cc	-0.06962165
183	0xbd94cf07	-0.0726605
184	0x3e062f55	0.13103993
185	0x3d8ebf7b	0.06970116
186	0xbd69dd6c	-0.05709593
187	0xbdbb37db	-0.09141513
188	0x3e327491	0.17427279
189	0x3ce847b0	0.028354496
190	0xbccf4902	-0.025303368
191	0xbdd29bcf	-0.102836244
192	0xbd15b927	-0.03655353
193	0x3dc5a2e9	0.09650213
194	0x3dba35eb	0.09092315
195	0xbd54949a	-0.05189953
196	0xbd1e2025	-0.038604874
197	0x3deb4f5b	0.11489745
198	0xb9ebae76	-0.00044952676
199	0xbd02b858	-0.031914085
200	0x3dca0930	0.098650336
201	0x3d9976b7	0.07493346
202	0x3e3ea1cb	0.18616407
203	0xbe066de7	-0.13127862
204	0x3d37e94e	0.04490023
205	0xbd97f744	-0.07420209
206	0xbdb3dc2b	-0.08782228
207	0xbda74942	-0.0816827
208	0xbdbecdf8	-0.09316629
209	0x3de6630f	0.11249363
210	0x3d7620d1	0.06008989
211	0xbdad5ae8	-0.084646046
212	0x3cdcf698	0.026973054
213	0x3dc795b5	0.09745351
214	0xbdb51000	-0.088409424
215	0xbd28a0ce	-0.04116898
216	0x3d2cd58f	0.042195853
217	0x3df2bb50	0.11852133
218	0x3c8cba37	0.017178638
219	0xbcd69c7e	-0.026197668
220	0x3d4ab42c	0.04948823
221	0xbe06bee5	-0.13158758
222	0x3cd81c18	0.026380584
223	0x3bae14f6	0.0053125573
224	0xbc98e78a	-0.018665094
225	0xbdbc671a	-0.091993526
226	0xbc1fc762	-0.009752126
227	0x3db51ed1	0.088437684
228	0x3e00a127	0.12561475
229	0xbe035f96	-0.12829432
230	0x3ccfb671	0.02535555
231	0xbd8dbe2d	-0.06921039
232	0x3bf4f4d1	0.0074754735
233	0x3d508dd8	0.050916523
234	0x3c2fc7f6	0.010728827
235	0xbd99952a	-0.07499154
236	0x3cafba1e	0.021451052
237	0x3d1bd88a	0.038048305
238	0xbdbb0da2	-0.0913346
239	0xbd9a2d19	-0.07528133
240	0xbd8a9455	-0.06766573
241	0xbdbb0dfb	-0.09133526
242	0xbcb94fc1	-0.022621037
243	0x3d2c9949	0.04213837
244	0x3c213f52	0.009841757
245	0xbd403ebb	-0.046934824
246	0xbc90d161	-0.017677965
247	0xbcd4ddb1	-0.025984617
248	0x3c1782af	0.009247466
249	0x3d035e16	0.03207215
250	0xbdcfcaa6	-0.10146074
251	0x3dc72b58	0.09725064
252	0x3d615064	0.055008307
253	0xbd869f6d	-0.06573377
254	0x3d81aa6c	0.063313335
255	0x3c24cd8d	0.010058773

actor.2.bias f4 [32]
0	0xbc94be0a	-0.018157024
1	0x3b1d45b3	0.0023997843
2	0x3c3a24e8	0.011361338
3	0x3d9d44dd	0.0767915
4	0xbde28de0	-0.11062217
5	0xbdbd73ed	-0.09250627
6	0x3d3c71fb	0.046007138
7	0xbdc4b7e4	-0.09605387
8	0x3dec3a8e	0.11534606
9	0x3de3064c	0.110851854
10	0x3dc38177	0.09546178
11	0xbc7ac96f	-0.015306815
12	0xbd9c13aa	-0.07620938
13	0x3ba648b7	0.0050745863
14	0x3dabe2d4	0.083928734
15	0x3d93db08	0.07219511
16	0xbb05d1f1	-0.0020419324
17	0xbdabf9df	-0.083972685
18	0x3d4853a1	0.04890788
19	0xbbcd7bcb	-0.006270861
20	0xbca9389c	-0.020656876
21	0xbd8b6c8d	-0.06807814
22	0x3d98a63a	0.0745358
23	0xbc70b9b6	-0.014692714
24	0x3cc66182	0.024216417
25	0xbd0b1366	-0.033954047
26	0x3d83b166	0.064303204
27	0x3dbba641	0.0916257
28	0x3d4cb768	0.049979597
29	0x3cdfc473	0.027315354
30	0x3de2ac85	0.11068062
31	0xbcf422d1	-0.029801758

actor.4.weight f4 [1, 32]
0	0x3e1dc9c1	0.15408994
1	0x3ea71d58	0.32639575
2	0xbe926400	-0.2859192
3	0x3e2c41d9	0.16821994
4	0xbe7e58bf	-0.24838541
5	0x3ea08b54	0.313563
6	0x3e18f84f	0.14938472
7	0x3e1c0aca	0.1523849
8	0xbdd27dce	-0.102779016
9	0x3e7a6b73	0.24455051
10	0x3e4db93f	0.20090197
11	0x3e280127	0.1640669
12	0xbde9216d	-0.113833286
13	0x3eb10ef7	0.3458173
14	0x3e6beb5f	0.23039006
15	0xbdd123ee	-0.10211931
16	0x3e530697	0.20607983
17	0xbe51e1d7	-0.20496307
18	0xbdcd95df	-0.10038351
19	0x3ec4a0da	0.3840397
20	0x3dd63d78	0.10460943
21	0x3e80c975	0.251537
22	0x3e24a8fb	0.16080086
23	0x3e491835	0.1963814
24	0xbdd1cf4e	-0.10244618
25	0x3e7c5050	0.24640012
26	0x3e906e16	0.2820899
27	0x3ebcb986	0.36860293
28	0x3e422895	0.18960793
29	0xbe46bd7f	-0.19408225
30	0x3e69f757	0.22848259
31	0x3e45dbc0	0.19322109

critic.0.weight f4 [64, 4]
0	0x3e29bb64	0.1657539
1	0x3f439e16	0.76413095
2	0x3cc2fbd1	0.023801716
3	0x3dd200a1	0.10254026
4	0xbec13945	-0.37739006
5	0xbedbae48	-0.42906404
6	0xbe71e1b8	-0.23621261
7	0xbdd9cdfc	-0.106349915
8	0x3e2efdf9	0.1708907
9	0x3f4a575c	0.7903955
10	0x3d9db23a	0.0770001
11	0xbf06674d	-0.52501374
12	0x3e2180b7	0.15771757
13	0x3f021a81	0.5082169
14	0xbeb63082	-0.35583884
15	0x3d2e3705	0.04253294
16	0xbb87f4d3	-0.0041490584
17	0x3c79e7cc	0.015253019
18	0x3f2618a8	0.6488137
19	0x3dbb4e74	0.09145823
20	0x3ec0eeaf	0.376821
21	0xbe684997	-0.22684322
22	0xbe1137a1	-0.14181377
23	0xbf284414	-0.6572888
24	0x3d9e83ba	0.077399686
25	0xbddd171d	-0.10795424
26	0xbf2f2bd6	-0.68426263
27	0xbeceb0c4	-0.40369236
28	0xbf2dacbd	-0.678417
29	0xbef75519	-0.48307112
30	0x3dcfbd20	0.101434946
31	0x3f298c07	0.6622929
32	0x3e343d04	0.176014
33	0xbf10a06c	-0.56494784
34	0x3e3e7719	0.1860012
35	0x3ef804b5	0.4844109
36	0xbe14e896	-0.1454185
37	0xbadd360c	-0.0016877069
38	0x3f803b09	1.0018016
39	0x3f3caaeb	0.736983
40	0x3e5ebc33	0.2175148
41	0xbbb2bc41	-0.0054545705
42	0xbcda6c9d	-0.026663119
43	0xbee12f37	-0.43981335
44	0xbf2f4f07	-0.6847996
45	0xbf282b6b	-0.6569125
46	0xbec2ace7	-0.3802254
47	0xbf485290	-0.7825098
48	0x3dfa3b90	0.12218392
49	0x3f357788	0.70885515
50	0xbe9907a1	-0.29888633
51	0xbf197b2c	-0.5995357
52	0x3ea2ac67	0.31772158
53	0x3f2edbaa	0.6830393
54	0x3f6a228c	0.91458964
55	0x3eb1d4a6	0.3473255
56	0x3cec2b42	0.02882922
57	0x3f3b874d	0.7325333
58	0xbd8571ef	-0.06515872
59	0x3f1681b4	0.5879166
60	0x3c72630d	0.014794123
61	0x3ee281ad	0.4423956
62	0x3f069ea7	0.52585834
63	0x3e63e916	0.22256884
64	0x3eb2e8b0	0.3494315
65	0xbe51120d	-0.20417042
66	0x3ecc9d71	0.39963868
67	0x3f4a0aa4	0.78922486
68	0xbed9d2ea	-0.42543727
69	0xbf3196da	-0.69370806
70	0xbe42510e	-0.18976232
71	0xbf34ee0c	-0.7067573
72	0xbe9446b2	-0.28960186
73	0xbdf978f2	-0.121812716
74	0x3f04105e	0.51587474
75	0x3dc36a67	0.09541779
76	0xbb8e291b	-0.0043383962
77	0x3f24c4f0	0.64363
78	0xbd6c8abd	-0.0577495
79	0xbf03dc31	-0.5150786
80	0x3ebe4b8d	0.37167016
81	0x3e857111	0.26062825
82	0xbe8898f4	-0.26679194
83	0xbe461ead	-0.1934764
84	0xbe88c7da	-0.26714975
85	0xbd1e3a4b	-0.03862981
86	0x3ef5408d	0.4790081
87	0x3eaf8244	0.34279072
88	0x3d5a15fa	0.053243615
89	0xbdde729f	-0.10861706
90	0x3e402e2a	0.1876761
91	0x3d9677a8	0.07347041
92	0xbdb88cc5	-0.09011225
93	0xbf023ab3	-0.5087082
94	0x3e851e9a	0.2599991
95	0xbedb184b	-0.42791972
96	0xbeba950b	-0.36441836
97	0x3f2efc65	0.68353873
98	0x3f60acc0	0.87763596
99	0x3f2b615c	0.66945434
100	0xbe0b25ff	-0.13588713
101	0x3e5ba879	0.21450986
102	0xbdd5c52e	-0.10438
103	0xbf253683	-0.64536303
104	0x3c520e37	0.012820772
105	0x3ea5577e	0.32293314
106	0xbe89ed31	-0.26938775
107	0x3eadb133	0.33924255
108	0xbf12932e	-0.5725583
109	0x3ed81c69	0.42209175
110	0x3f25bbae	0.647395
111	0x3f480199	0.7812744
112	0xbe95f709	-0.29290035
113	0x3eeb489a	0.45953828
114	0x3f484d18	0.78242636
115	0x3f1638ce	0.5868043
116	0x3e74e979	0.23917188
117	0x3a86b041	0.0010275916
118	0x3f0ddcf9	0.554153
119	0x3eaba333	0.3352295
120	0xbef91a66	-0.48652953
121	0xbf282a6b	-0.65689725
122	0x3b8da22e	0.004322312
123	0x3f41e9b1	0.7574721
124	0x3ee1ef2c	0.44127786
125	0xbf192724	-0.5982535
126	0xbe6c1740	-0.23055744
127	0xbf356fdc	-0.7087381
128	0x3c505745	0.012716119
129	0xbdaaa03c	-0.083313435
130	0x3f109efe	0.564926
131	0x3dedb2fc	0.11606404
132	0x3e93b5f2	0.2884975
133	0x3e88ed9b	0.2674378
134	0x3efc0f6b	0.49230513
135	0x3f10d2d2	0.56571686
136	0xbe7e4e8a	-0.24834648
137	0x3d4d24b9	0.05008385
138	0xbf0bde04	-0.54635644
139	0xbecaecc1	-0.39633754
140	0xbe52b55a	-0.20576993
141	0xbc8c2b86	-0.017110597
142	0x3f173665	0.59067374
143	0x3f3468b7	0.7047228
144	0xbd665039	-0.05622885
145	0x3ed1fd14	0.41013396
146	0x3f0ce9fb	0.55044526
147	0x3f108fbe	0.56469333
148	0x3e1fb678	0.1559695
149	0xbd867efe	-0.065671906
150	0x3ef13f91	0.4711881
151	0x3f1f3f36	0.6220583
152	0xbe9f40fe	-0.31104273
153	0x3e2ae0c6	0.16687307
154	0x3f541e3c	0.82858634
155	0x3ebb8a6c	0.36629045
156	0xbeea50e9	-0.45764855
157	0xbe84f88c	-0.25970876
158	0xbd3435c5	-0.04399659
159	0x3f44827f	0.7676162
160	0xbea34253	-0.3188654
161	0xbf1fd42a	-0.6243311
162	0xbf2da1ff	-0.6782531
163	0xbf13ff7f	-0.5781173
164	0xbe2277b9	-0.15865983
165	0xbf0d6fe5	-0.5524886
166	0x3f07b8c3	0.530163
167	0x3ea83631	0.32853845
168	0xbed89839	-0.42303637
169	0xbec7a373	-0.3899189
170	0xbd22216d	-0.03958266
171	0xbd33d0c0	-0.04390025
172	0xbea872a1	-0.32899955
173	0xbf283a35	-0.65713817
174	0xbd594a45	-0.053049345
175	0xbf34c02c	-0.7060573
176	0xbd59f26e	-0.053209715
177	0xbdb2ee3f	-0.08736848
178	0xbdbe5b76	-0.092947885
179	0xbeca74c1	-0.395422
180	0xbdf79924	-0.12089756
181	0x3f2dc6cd	0.6788147
182	0x3f34bf7e	0.70604694
183	0x3f34694b	0.70473164
184	0x3eefa604	0.46806347
185	0xbece04ad	-0.40237942
186	0xbf6b38d0	-0.91883564
187	0xbf295989	-0.66152245
188	0x3e446736	0.19179997
189	0x3ef4c204	0.47804272
190	0x3f81428c	1.0098433
191	0x3f0ace6c	0.54221225
192	0xbec018e3	-0.37518987
193	0x3e53059f	0.20607613
194	0xbf0c0d63	-0.54707927
195	0xbe57de84	-0.21080977
196	0x3ef7b283	0.4837838
197	0x3ca2e295	0.019883433
198	0xbf5ce746	-0.86290395
199	0xbece8fae	-0.40343994
200	0xbe778caa	-0.24174753
201	0x3f2d613a	0.6772648
202	0x3f195d7c	0.5990827
203	0x3e48ae9c	0.19597858
204	0xbe2eda0e	-0.17075369
205	0x3deb5b4f	0.11492025
206	0x3ed4897f	0.4151115
207	0x3ecf3815	0.40472475
208	0xbdc56166	-0.09637718
209	0xbd04d719	-0.032431696
210	0x3e697224	0.22797447
211	0x3f29a955	0.66274005
212	0xbec3ede2	-0.38267428
213	0xbe3ba46e	-0.18324444
214	0x3f1538f7	0.58290046
215	0x3f292c2e	0.6608304
216	0x3ece625d	0.4030942
217	0x3dcb3b47	0.09923416
218	0xbf1820a3	-0.594248
219	0xbf07b7c6	-0.5301479
220	0x3e820d27	0.2540066
221	0xbf1b7fd8	-0.6074195
222	0xbf679aca	-0.90470564
223	0xbf0fd410	-0.56182957
224	0xbee7398a	-0.45161086
225	0xbe62f558	-0.22163904
226	0x3ed5bb6a	0.41744548
227	0x3ec25a03	0.37959298
228	0x3db1521d	0.0865824
229	0x3f099c46	0.5375408
230	0xbefea95d	-0.4973859
231	0xbf039f6f	-0.5141515
232	0x3f18dcae	0.5971173
233	0xbdd4db3e	-0.1039338
234	0xbee7806a	-0.4521516
235	0xbf31846c	-0.69342685
236	0xbef8030f	-0.48439834
237	0x3ecd79ae	0.40131897
238	0xbead66aa	-0.3386739
239	0x3e662f31	0.2247894
240	0xbdd42ae1	-0.10359741
241	0x3ee577b0	0.44817877
242	0xbecdd446	-0.40201014
243	0xbf146653	-0.57968634
244	0xbe47c9cf	-0.19510578
245	0xbcbb5589	-0.022867935
246	0xbda77e53	-0.08178391
247	0xbdc44ad8	-0.09584588
248	0xbe78ba9d	-0.24289937
249	0xbdebed2e	-0.11519848
250	0xbe140d11	-0.1445811
251	0xbdcbbe9f	-0.099484675
252	0xbf0a3a45	-0.5399516
253	0xbe5435c3	-0.20723633
254	0xbf38a858	-0.7213187
255	0xbe8c0d1e	-0.27353758

critic.0.bias f4 [64]
0	0x3e458060	0.19287252
1	0xbed7911f	-0.42102906
2	0xbe48f5d0	-0.1962502
3	0xbec8d264	-0.39223015
4	0x3f24156f	0.64095205
5	0x3e5c3352	0.21503952
6	0xbe369bc0	-0.17832851
7	0xbec54403	-0.3852845
8	0xbe14928d	-0.1450903
9	0xbe86ec0f	-0.26351973
10	0xbe9a2080	-0.3010292
11	0x3ee9c37c	0.45656955
12	0xbce70825	-0.028202126
13	0xbe8430bf	-0.2581844
14	0x3e96a7e9	0.2942498
15	0x3f18946f	0.5960149
16	0xbdc81373	-0.09769335
17	0xbeb7423c	-0.3579272
18	0xbecad8ef	-0.39618632
19	0x3ec86740	0.39141273
20	0xbd6195cd	-0.0550745
21	0xbcecfdfa	-0.0289297
22	0xbf286e8e	-0.65793693
23	0xbe7508be	-0.23929116
24	0xbc380832	-0.011232423
25	0xbebaeed8	-0.36510348
26	0xbe1f0d2f	-0.15532373
27	0x3d8c314f	0.06845342
28	0x3e9c520e	0.30531353
29	0x3e4ca3b1	0.19984318
30	0x3eedf9bf	0.46479604
31	0xbebc2a70	-0.36751127
32	0xbf08c5ed	-0.5342701
33	0x3e4851bc	0.19562429
34	0x3ed7eadd	0.42171374
35	0xbe166250	-0.1468594
36	0xbe617e43	-0.22020821
37	0xbd9bee59	-0.076138206
38	0xbe22512b	-0.15851276
39	0x3e8ae716	0.2712943
40	0x3ec55032	0.38537747
41	0x3e0be30b	0.13660829
42	0x3d7a3694	0.061087206
43	0xbea23ac6	-0.31685466
44	0xbf0ac68a	-0.54209197
45	0x3e2b877d	0.16750903
46	0x3e884db3	0.2662178
47	0xbe2a0ae0	-0.16605711
48	0x3e5db2c6	0.21650228
49	0x3d8186ab	0.06324514
50	0xbdab3d76	-0.08361332
51	0x3eb3a1cd	0.35084382
52	0xbde45f28	-0.11150962
53	0x3dcf9e4c	0.101376146
54	0xbeb6212d	-0.35572186
55	0x398e39f6	0.00027127535
56	0x3e8e8322	0.2783442
57	0x3da8a0b8	0.0823378
58	0x3e082b2b	0.13297717
59	0x3f03cdd1	0.51485926
60	0xbe5d525e	-0.21613452
61	0x3f0712d6	0.52763116
62	0xbf0bffa6	-0.54686964
63	0xbe5581f8	-0.2085036

critic.2.weight f4 [32, 64]
0	0x3eafafd6	0.3431384
1	0xbe309679	-0.17244901
2	0x3e9212d9	0.28530005
3	0xbd21374e	-0.039359383
4	0xbdc1dbcf	-0.09465753
5	0x3e40bb6b	0.18821494
6	0x3d8ae215	0.06781403
7	0xbe9b59d5	-0.30341974
8	0xbea07ca3	-0.3134509
9	0xbe8916f0	-0.26775312
10	0x3e5a9374	0.21345311
11	0x3e9733c4	0.29531682
12	0x3f11374d	0.5672501
13	0xbb7558a1	-0.003743686
14	0xbc80a9d8	-0.015705988
15	0xbd397e29	-0.04528633
16	0xbee01554	-0.43766272
17	0xbd90f6fd	-0.07078359
18	0xbd8fb3aa	-0.0701669
19	0x3e8125bb	0.252241
20	0x3e8d6e0b	0.2762302
21	0xbed2d4f6	-0.411781
22	0xbd3ede0c	-0.04659848
23	0x3cf81105	0.030281553
24	0x3d0aae47	0.03385761
25	0x3d7e1e10	0.06204039
26	0xbe150e13	-0.1455615
27	0xbd669767	-0.056296732
28	0x3e445d64	0.1917625
29	0xbe17e181	-0.14832117
30	0xbdbfbac3	-0.09361794
31	0xb8bb2aa4	-8.924797e-05
32	0xbded9555	-0.116007484
33	0x3d3b4950	0.045724213
34	0x3e3f6d0e	0.18693945
35	0xbeb391b1	-0.3507209
36	0xbe40560f	-0.18782829
37	0xbeaa0846	-0.33209437
38	0xbe185515	-0.14876206
39	0xbe8332f7	-0.2562482
40	0x3e2f1738	0.17098701
41	0xbea18bb8	-0.3155191
42	0xbe789979	-0.24277295
43	0xbdf84ecd	-0.12124405
44	0x3c777736	0.015104106
45	0x3e69c449	0.22828783
46	0x3e530718	0.20608175
47	0xbe687ebf	-0.227046
48	0x3cf706b9	0.030154573
49	0x3eaa92a4	0.33315003
50	0x3e91ce25	0.28477588
51	0xbcbe05f3	-0.023196196
52	0xbe9a283a	-0.30108815
53	0xbe9d9352	-0.3077646
54	0x3da6bf9f	0.081420176
55	0xbdbcc821	-0.09217859
56	0xbdfe4ac8	-0.12416607
57	0x3ec09f18	0.3762138
58	0x3e45465d	0.19265123
59	0xbd4f0e07	-0.050550487
60	0x3eba7fbc	0.3642558
61	0xbd95ce4c	-0.07314739
62	0x3d1746ee	0.03693288
63	0xbdb0f493	-0.08640399
64	0x3e0941ac	0.13403958
65	0xbdcc20c5	-0.09967188
66	0x3e2475ba	0.16060534
67	0x3d6e5001	0.058181766
68	0x3dbab28a	0.09116085
69	0xbd1b107f	-0.03785753
70	0xbe36aa82	-0.17838481
71	0xbd3bdb5f	-0.045863505
72	0xbcd3e5ae	-0.025866356
73	0x3e02e3ff	0.12782286
74	0xbde15b8f	-0.110037915
75	0xbe49a650	-0.1969235
76	0x3cf6643f	0.030077098
77	0x3e3d7a5d	0.18503709
78	0x3ea1a731	0.3157287
79	0x3d492bd7	0.049114075
80	0x3de7eef8	0.113248765
81	0xbea318b6	-0.3185479
82	0x3b4581ab	0.0030137103
83	0x3df05cd6	0.11736457
84	0x3e61fafa	0.22068396
85	0x3d7d5839	0.061851714
86	0xbdbc6958	-0.0919978
87	0xbe0e015c	-0.13867706
88	0x3eb8fc9f	0.36130235
89	0x3da0f1a9	0.07858593
90	0x3d04d140	0.03242612
91	0x3ea905a4	0.33012116
92	0x3e193a43	0.14963631
93	0x3e1b6bf4	0.151779
94	0x3d3ee692	0.046606608
95	0xbeb6ff96	-0.35741872
96	0x3e375c34	0.17906266
97	0x3e665e39	0.2249688
98	0xbc98625f	-0.018601594
99	0x3e389a13	0.18027525
100	0x3e52e29b	0.20594256
101	0x3e59e44e	0.21278498
102	0x3e02a1d6	0.12757048
103	0x3dd94d1f	0.10610413
104	0xbe7156b9	-0.23568238
105	0xbdfeaaf0	-0.124349475
106	0xbe6ba0e7	-0.23010598
107	0xbe7127b2	-0.23550299
108	0xbe1f8954	-0.1557973
109	0x3e382d58	0.17986047
110	0xbe2a979c	-0.16659397
111	0x3e7aa326	0.24476299
112	0xbe1a22e2	-0.15052369
113	0xbd625807	-0.05525973
114	0x3e8b045c	0.27151763
115	0x3e53383c	0.2062692
116	0x3e0a4b8f	0.13505386
117	0x3daca7e7	0.08430462
118	0xbe161e9b	-0.14660113
119	0xbeb62c8b	-0.3558086
120	0xbb08b259	-0.0020858257
121	0x3e40eb57	0.18839775
122	0xbd11f278	-0.035631627
123	0xbcc2394d	-0.023708964
124	0x3c5625bf	0.013070523
125	0xbd7aa6cf	-0.061194237
126	0x3d55218d	0.05203395
127	0xbdd8d479	-0.10587401
128	0x3c76ac7a	0.01505577
129	0x3e33afa4	0.1754747
130	0x3daf591e	0.0856192
131	0x3d6c5f20	0.057707906
132	0xbe6afa62	-0.22947076
133	0xbce3b6b7	-0.027797086
134	0x3e4ee65b	0.20205061
135	0x3dc23911	0.09483541
136	0x3cb2ddc9	0.021834271
137	0x3ad438a4	0.0016191197
138	0x3e1e6018	0.15466344
139	0xbc4993c7	-0.012303299
140	0xbd094ccd	-0.03352051
141	0x3d5885a1	0.052861813
142	0xbe100042	-0.14062598
143	0xbe5f6cf2	-0.21818903
144	0xbd335e52	-0.043791123
145	0x3dc48b9c	0.09596941
146	0x3e93002b	0.28711066
147	0xbdbc77cf	-0.09202539
148	0x3ccc4a3e	0.024937745
149	0xbd7ed5d5	-0.062215645
150	0x3ecf316a	0.40467387
151	0x3e78c56a	0.24294057
152	0xbc6ef5f1	-0.014585004
153	0xbca0d025	-0.019630501
154	0x3d96947a	0.073525384
155	0x3dcf62e7	0.10126286
156	0xbca83bc9	-0.02053632
157	0xbd4793ca	-0.048724927
158	0xbe24bf19	-0.16088523
159	0xbd816ca6	-0.06319551
160	0x3eb257b3	0.34832534
161	0xbdddcc28	-0.10829955
162	0xbe44f29a	-0.1923317
163	0x3d436573	0.04770417
164	0x3e237d2c	0.15965718
165	0x3e147ee1	0.14501525
166	0x3e5eb5e0	0.21749067
167	0xbcd7e5d3	-0.026354706
168	0xbbc5bb99	-0.0060343263
169	0xbe0282b9	-0.12745179
170	0xbe190885	-0.14944656
171	0x3cff2a96	0.031148236
172	0x3e653ba0	0.22386026
173	0x3c0188c3	0.007906142
174	0x3dcba8a2	0.099442735
175	0xbc87a7b5	-0.016559461
176	0xbe9ecc48	-0.3101523
177	0xbcc90ced	-0.024542296
178	0xbd586043	-0.052826177
179	0xbe5e9058	-0.2173475
180	0x3c623fc0	0.0138091445
181	0xbcd0db86	-0.025495302
182	0x3dcca669	0.09992678
183	0xbd8cdb16	-0.06877725
184	0xbd39c27c	-0.04535149
185	0xbbd983bc	-0.0066380184
186	0xbddd28d1	-0.10798801
187	0xbe8d77b4	-0.2763039
188	0x3de8afdb	0.11361667
189	0xbdc59b8e	-0.0964881
190	0x3eaee377	0.34157917
191	0x3d521006	0.051284812
192	0xbda3b9f2	-0.07994451
193	0x3afbf8f7	0.0019223978
194	0x3de38fd8	0.111114204
195	0x3d4074af	0.04698628
196	0x3decd18c	0.115634054
197	0xbe33d385	-0.17561157
198	0xbd90a2ef	-0.07062327
199	0x3df206d2	0.11817707
200	0xbd49e825	-0.049293656
201	0x3e34aecf	0.17644809
202	0x3ca8774b	0.020564696
203	0xbe88e1b5	-0.267347
204	0xbdb7799a	-0.089587405
205	0x3daa8a2d	0.08327136
206	0x3de3c3fd	0.11121366
207	0x3dd9b8a7	0.10630923
208	0x3d9c8cf5	0.07644073
209	0xbdbc432a	-0.09192498
210	0x3d0ace4a	0.03388814
211	0xbde4704d	-0.11154232
212	0x3e350d23	0.17680793
213	0xbdd91e87	-0.10601526
214	0xbd4fa62b	-0.05069558
215	0xbe110fc5	-0.14166172
216	0x3d821d00	0.063531876
217	0xbe2e3e57	-0.17015968
218	0x3c7e2762	0.015512319
219	0x3d8de612	0.06928648
220	0x3d98bcfa	0.074579194
221	0x3d7bacc5	0.061444063
222	0xbd8a44d6	-0.06751411
223	0xbcd4c3aa	-0.025972206
224	0xbe11c9e6	-0.14237174
225	0x3e28a011	0.1646731
226	0x3d838436	0.064217016
227	0x3e39a5b1	0.18129613
228	0x3cd936a2	0.026515309
229	0x3e68aae9	0.22721447
230	0xbe14ab7f	-0.14518546
231	0xbe01a2bd	-0.12659736
232	0xbd9e35a2	-0.077250734
233	0x3cc8ba42	0.024502877
234	0xbdf49972	-0.1194333
235	0x3d6d8a14	0.05799301
236	0xbd6ed9ae	-0.058313064
237	0xbc16fe8b	-0.009215961
238	0xbd8fb603	-0.07017138
239	0x3d00fa23	0.03148855
240	0x3ba55ddb	0.005046589
241	0xbd9114bc	-0.07084033
242	0xbda03d23	-0.07824161
243	0x3e29cd70	0.16582274
244	0xbbf88b34	-0.0075849537
245	0xbde8863d	-0.11353729
246	0x3d6f2465	0.058384318
247	0x3af8f24a	0.0018993106
248	0xbd40c846	-0.047065996
249	0x3d15ef2a	0.036605038
250	0xbdb44df0	-0.08803928
251	0x3e0dff8e	0.13867018
252	0x3c511b6d	0.0127628865
253	0x3c719202	0.014744284
254	0xbd5e4b54	-0.054271057
255	0xbd8de528	-0.06928474

critic.2.bias f4 [32]
0	0xbd50c790	-0.050971568
1	0x3e177062	0.14788964
2	0xbe1211c4	-0.1426459
3	0x3e5cd7e5	0.21566732
4	0x3da26136	0.07928698
5	0xbc046218	-0.008080028
6	0xbe3f0ed3	-0.18657999
7	0xbe333806	-0.1750184
8	0xbe19700d	-0.1498415
9	0xbe30974b	-0.17245214
10	0x3dbbe699	0.091748424
11	0x3dc30a09	0.095233984
12	0x3d550a61	0.05201185
13	0x3d8eb896	0.06968801
14	0x3dfd4349	0.12366349
15	0x3d50ab2d	0.050944496
16	0x3d3e3cce	0.046444707
17	0xbd023987	-0.031793144
18	0xbe7d5a0c	-0.24741381
19	0x3dd9ad5f	0.10628771
20	0x3e8483ea	0.25881892
21	0xbe55cfb6	-0.20880017
22	0x3c7224f6	0.01477932
23	0xbd852622	-0.06501414
24	0xbe8c82b1	-0.2744346
25	0xbd570bc7	-0.052501466
26	0x3a47850d	0.00076110737
27	0x3dd5ce1f	0.10439705
28	0xbe0e7a99	-0.13913955
29	0xbe1731bc	-0.14765066
30	0x3e3b5e84	0.18297774
31	0xbd9d8fca	-0.07693441

critic.4.weight f4 [1, 32]
0	0x3ea8aab2	0.3294273
1	0x3e4da2d5	0.20081647
2	0x3e4447a1	0.1916795
3	0xbe8c3ab8	-0.2738855
4	0xbeb6a2ce	-0.35671085
5	0xbec07278	-0.37587333
6	0x3e92c619	0.28666762
7	0x3ea3960d	0.31950417
8	0xbeb53b1b	-0.35396656
9	0xbe9f26ce	-0.31084293
10	0x3eed3490	0.46329165
11	0x3e98a8bd	0.29816237
12	0xbed840bb	-0.42236885
13	0x3e82990a	0.25507385
14	0xbe7b165b	-0.24520247
15	0xbeeee310	-0.4665761
16	0xbe9a5159	-0.30140188
17	0x3e4b5002	0.1985474
18	0x3ea0f826	0.31439322
19	0xbe8696ce	-0.2628693
20	0xbe5d5586	-0.21614656
21	0x3e6e6cc3	0.23283677
22	0x3ea7ec21	0.3279734
23	0xbe97e914	-0.29670012
24	0x3e901f21	0.2814875
25	0xbe8b14e2	-0.2716437
26	0xbeaed0c0	-0.3414364
27	0xbe9a4192	-0.3012815
28	0xbea0abe7	-0.3138115
29	0x3e7f4ef4	0.24932462
30	0x3ea95a95	0.3307692
31	0xbed4c994	-0.41560042
