cartpole_test/PPO_continuous_ContinuousCartPole-v0.pth (torch, 23695 bytes, 10 tensors)

actor.0.weight f4 [64, 4]
-0.483414 0.3934598 -0.5569565 -0.5322921 -0.40413582 0.5517045 0.29251772 0.033880558
0.02352343 0.24485372 -0.47873646 -0.28770822 -0.48259106 0.4928674 0.32211626 0.28641918
-0.30262846 -0.44424415 0.20399114 0.5506158 0.02281582 0.3840466 0.64061266 0.51227635
0.2288265 0.3492363 0.22518313 0.48019108 -0.3837657 -0.30463386 -0.74134195 -0.3981004
-0.03403221 -0.24833554 0.5077187 0.01097163 0.48192194 -0.17145778 0.7789906 -0.11998801
0.013999274 0.43545565 0.80052197 0.15498334 -0.056443002 -0.39385903 -0.19514614 -0.23962797
-0.25934404 -0.43778995 -0.03644393 0.5169403 0.34227976 -0.3086881 -0.27797374 -0.46011326
0.2703229 0.06419476 0.62397337 0.022084298 -0.17274702 0.22650664 -0.14662376 -0.62581134
0.3203121 0.21421139 0.6207222 0.11163616 -0.06789649 0.45439833 0.6753376 0.024012469
-0.1635971 0.460504 -0.27193236 -0.66077924 0.097036034 0.24533461 -0.3958953 -0.2857059
-0.32957247 0.21139072 0.51764685 0.12785204 -0.27345696 0.034610055 0.67615247 -0.39515635
-0.26038563 -0.12205989 -0.41063952 -0.00994462 0.022777883 -0.45096907 0.0010065406 -0.5905625
-0.45878312 -0.24133149 0.4830163 0.6295958 0.40145048 -0.02981974 0.67472506 -0.11885281
0.24342306 0.06628208 0.45570013 0.35873315 0.32195407 -0.42255136 0.72092146 -0.07336796
-0.24697717 -0.040314995 0.21654476 -0.42484578 -0.39747527 0.055548076 -0.38081804 -0.28466284
0.33758107 0.30327302 0.7469235 0.21942496 0.4943591 0.43029225 -0.692357 0.26405573
-0.5644191 -0.21742831 0.82009405 0.5045349 0.22237673 -0.30231932 -0.51111436 -0.63898516
0.60374063 0.1688805 -0.33798295 -0.45554158 0.30402657 0.17604178 -0.015917124 0.006204303
0.077253915 0.26934183 0.18188706 0.50526273 -0.029268285 -0.06027616 -0.21182647 -0.060491484
-0.37820533 0.04009459 -0.40926355 -0.38350776 0.20190528 -0.0998652 -0.32337418 0.25118193
-0.29586858 0.2950252 -0.14100137 0.25078878 -0.3540961 -0.43357423 0.8799961 0.6550714
-0.22990134 -0.37473404 -0.33060977 -0.33257806 -0.22661892 -0.052994862 -0.78752327 0.17105506
-0.30971387 0.12246456 -0.039515253 -0.4357969 -0.043621704 0.2943698 0.25086987 0.012292349
-0.3220014 0.17355548 -0.49111658 0.20846446 0.12671892 -0.28271028 -0.26167327 0.06142054
-0.46029544 -0.43585172 -0.21580757 -0.6244162 -0.0073948246 -0.25658762 0.05835803 -0.16205457
-0.3301063 0.4351841 -0.6975678 -0.5630473 0.05890697 -0.20143478 0.58145046 0.47535783
-0.4517041 0.14981212 -0.44698033 -0.36375922 0.5137632 -0.014946566 -0.833706 -0.35219082
-0.32518035 0.01453233 -0.014545802 -0.5300203 -0.3936688 -0.055812687 -0.6908084 0.30403933
0.23305333 -0.042488284 -0.6267502 0.24335927 -0.48325607 0.22936103 0.14581992 0.15764603
0.31941873 0.46813148 0.2223578 0.015671061 -0.38921353 -0.063199975 0.065098435 0.2081484
0.6424339 0.48218095 -0.5041683 -0.37854153 -0.5183606 0.2698053 0.60763323 0.13533834
0.52525026 0.45281258 -0.0036820825 0.08664143 0.46363246 -0.22619517 0.69220847 0.6622285
00000000: 0a82 f7be 9073 c93e b494 0ebf 4c44 08bf
00000010: e4ea cebe 823c 0d3f e2c4 953e 57c6 0a3d
00000020: 35b4 c03c efba 7a3e f21c f5be 7e4e 93be
00000030: 2d16 f7be 1e59 fc3e 6cec a43e 89a5 923e
00000040: 1ef2 9abe f873 e3be 0ee3 503e 28f5 0c3f
00000050: 3ee8 ba3c c2a1 c43e 31ff 233f 8b24 033f
00000060: 7e51 6a3e 1acf b23e 6896 663e 9bdb f53e
00000070: f07c c4be f8f8 9bbe 96c8 3dbf d1d3 cbbe
00000080: 5c65 0bbd ac4b 7ebe daf9 013f 5ac2 333c
00000090: 79be f63e a192 2fbe ee6b 473f 46bc f5bd
000000a0: 365d 653c 0bf4 de3e 02ef 4c3f f4b3 1e3e
000000b0: c730 67bd e4a7 c9be 64d4 47be 0961 75be
000000c0: bec8 84be 0126 e0be 3b46 15bd 3356 043f
000000d0: 4b3f af3e 5e0c 9ebe 9352 8ebe f793 ebbe
000000e0: c367 8a3e 8b78 833d b8bc 1f3f 21ea b43c
000000f0: 98e4 30be 5bf1 673e 8a24 16be 2c35 20bf
00000100: f3ff a33e 3b5a 5b3e a6e7 1e3f 80a1 e43d
00000110: 510d 8bbd e6a6 e83e ede2 2c3f ccb5 c43c
00000120: 0086 27be 2ec7 eb3e b83a 8bbe d428 29bf
00000130: d4ba c63d ff38 7b3e cab2 cabe 0b48 92be
00000140: b9bd a8be cf76 583e 8184 043f a5eb 023e
00000150: 8d02 8cbe 46c3 0d3d 5418 2d3f ef51 cabe
00000160: 4451 85be 89fa f9bd 583f d2be c2ee 22bc
00000170: af98 ba3c 6be5 e6be e6ed 833a 1b2f 17bf
00000180: 9fe5 eabe 9a1f 77be ea4d f73e 312d 213f
00000190: eb8a cd3e 8748 f4bc c8ba 2c3f 1a69 f3bd
000001a0: e543 793e e6be 873d 8751 e93e dfab b73e
000001b0: 2ad7 a43e a758 d8be 4f8e 383f f141 96bd
000001c0: 95e7 7cbe 5621 25bd e9bd 5d3e 6385 d9be
000001d0: e181 cbbe 6186 633d 95fa c2be 54bf 91be
000001e0: 6dd7 ac3e 9a46 9b3e 6136 3f3f f0b0 603e
000001f0: a31c fd3e 444f dc3e 4f3e 31bf 5032 873e
00000200: c57d 10bf 87a5 5ebe aff1 513f 3329 013f
00000210: bab6 633e 99c9 9abe 64d8 02bf 8894 23bf
00000220: bf8e 1a3f 03ef 2c3e 1a0c adbe bf3c e9be
00000230: 5fa9 9b3e 4c44 343e a164 82bc 774d cb3b
00000240: 4d37 9e3d 2ce7 893e 9a40 3a3e e658 013f
00000250: 0bc4 efbc 22e4 76bd 0ae9 58be ebc5 77bd
00000260: 21a4 c1be 3a3a 243d fe8a d1be 215b c4be
00000270: 42c0 4e3e 2086 ccbd 4d91 a5be eb9a 803e
00000280: 167c 97be 8b0d 973e aa62 10be 6367 803e
00000290: 164c b5be 71fd ddbe 6d47 613f c2b2 273f
000002a0: 426b 6bbe 24dd bfbe af45 a9be ac47 aabe
000002b0: ca0e 68be 2411 59bd 209b 49bf 0f29 2f3e
000002c0: d192 9ebe b3ce fa3d bfda 21bd c520 dfbe
000002d0: acac 32bd a3b7 963e 0472 803e d965 493c
000002e0: 5edd a4be 87b8 313e a273 fbbe b577 553e
000002f0: 9bc2 013e 67bf 90be 0afa 85be 1b94 7b3d
00000300: d8ab ebbe f527 dfbe a9fc 5cbe bdd9 1fbf
00000310: 4950 f2bb 745f 83be d408 6f3d a2f1 25be
00000320: b103 a9be 73d0 de3e ce93 32bf de23 10bf
00000330: 6f48 713d eb44 4ebe f0d9 143f 1a62 f33e
00000340: c345 e7be 5968 193e 9bda e4be a63e babe
00000350: fc85 033f 71e2 74bc c26d 55bf 5b52 b4be
00000360: 0a7e a6be 0319 6e3c 8451 6ebc 69af 07bf
00000370: f58e c9be d89b 64bd d2d8 30bf 0bab 9b3e
00000380: 88a5 6e3e 3208 2ebd b372 20bf 2c33 793e
00000390: 576d f7be 9edd 6a3e d151 153e f66d 213e
000003a0: da8a a33e eeae ef3e c3b1 633e 9960 803c
000003b0: ff46 c7be fd6e 81bd 5452 853d db24 553e
000003c0: 8c76 243f 6ce0 f63e 2c11 01bf 32d0 c1be
000003d0: 48b3 04bf ec23 8a3e da8d 1b3f 2296 0a3e
000003e0: cd76 063f 0dd7 e73e 184f 71bb 1071 b13d
000003f0: 3c61 ed3e b59f 67be 9334 313f cf87 293f

actor.0.bias f4 [64]
-0.07997063 0.224796 0.39679667 -0.35178208 -0.17471048 0.37943515 -0.23847248 -0.0013500348
0.41231838 0.04583057 0.047960922 0.24323931 0.43856603 -0.237987 0.37559074 0.003773839
0.45171246 -0.030742755 0.39290786 0.19987157 0.07623527 0.25127792 -0.28823334 0.42206475
-0.17788996 0.1504907 -0.25819027 -0.37584907 -0.2917618 0.0106297815 0.06450882 -0.016334042
-0.2381784 -0.019708002 -0.011941058 0.3607679 -0.09629328 0.27581096 0.4537209 0.45366368
0.20283198 0.162508 -0.26853397 0.29022095 -0.21489407 -0.10635667 0.09454828 -0.17333391
0.20987388 0.4866429 0.36498207 -0.05372261 -0.37236857 0.14631157 -0.09843205 0.43197092
-0.43521768 -0.25965193 -0.25747377 0.060225543 -0.22050448 -0.39429247 0.3418123 0.079234704
00000000: a4c7 a3bd ec30 663e ef28 cb3e c81c b4be
00000010: 4ee7 32be 5345 c23e 2132 74be a7f3 b0ba
00000020: 651b d33e d6b8 3b3d ac72 443d ba13 793e
00000030: ba8b e03e ddb2 73be 6e4d c03e 8352 773b
00000040: db46 e73e 3bd8 fbbc 382b c93e 22ab 4c3e
00000050: 3d21 9c3d 80a7 803e 5293 93be df18 d83e
00000060: c928 36be 3c1a 1a3e 8431 84be 4a6f c0be
00000070: cd61 95be 8928 2e3c 331d 843d f8ce 85bc
00000080: 0ae5 73be ad72 a1bc 6da4 43bc 92b6 b83e
00000090: 6935 c5bd 1837 8d3e 1b4e e83e 9b46 e83e
000000a0: 30b3 4f3e 7f68 263e 497d 89be d797 943e
000000b0: 310d 5cbe 87d1 d9bd 87a2 c13d 727e 31be
000000c0: 2ee9 563e 4229 f93e eede ba3e 3d0c 5cbd
000000d0: 18a7 bebe b3d2 153e be96 c9bd 4b2b dd3e
000000e0: dad4 debe 19f1 84be 9ad3 83be 0faf 763d
000000f0: edcb 61be b4e0 c9be 0602 af3e ce45 a23d

actor.2.weight f4 [32, 64]
-0.20297857 -0.034918815 -0.045870867 0.12005122 0.17086957 0.008350591 0.029641956 -0.21611404
0.058089316 0.17999771 0.16625166 0.08492446 0.1255301 0.024232334 0.08865079 -0.17941077
-0.031846084 0.22847028 -0.13400711 -0.1091168 0.17147136 -0.0847054 0.09591502 0.044338316
0.0043558483 0.16121626 -0.0057954164 -0.07121018 -0.048680652 -0.07686824 0.18513206 -0.10506939
0.23293734 -0.14172004 -0.15418008 -0.0807438 0.15233362 -0.043436978 -0.010233125 -0.08499719
-0.076249406 0.1446661 -0.012549332 0.081007235 0.06524237 -0.020153996 -0.04503887 -0.023000952
-0.0059551564 0.100508526 -0.090690255 0.14086148 0.085224494 -0.03623494 -0.05112772 0.081479825
-0.10707889 0.13097315 0.07873598 0.18687564 -0.2030143 0.13612938 -0.06535827 0.2362438
-0.009128352 0.07188933 0.054753374 0.04970857 0.020342857 0.08190508 0.09368183 -0.03547829
0.021565948 0.2170184 0.14336452 0.012922626 -0.05370865 -0.09358582 0.10200177 0.0644945
0.11168611 0.19618449 -0.1323306 -0.038531568 0.043974336 -0.049906526 -0.10647253 0.08981502
0.07705244 0.06756154 -0.0060389703 0.07329229 0.09762223 -0.12152429 0.21888423 0.015388634
0.09134314 -0.217685 -0.19750461 -0.0658518 0.10275088 -0.0015197457 0.032824967 -0.051905334
-0.04119189 0.13152179 -0.011183096 0.08209948 -0.07096547 -0.05625753 0.04009768 -0.049675584
-0.07730906 -0.11302223 -0.13168119 0.19641387 0.019194046 -0.046151716 -0.07552621 -0.025666855
-0.09535189 -0.015069825 0.06604722 0.086035125 -0.010475566 0.05420963 0.046497006 0.04907231
0.009130192 -0.10469151 -0.002766673 -0.1565361 -0.06876872 -0.15641344 -0.161808 0.24942352
-0.005315889 -0.0054710614 -0.13863054 0.046479203 0.021921929 -0.005781729 -0.025310181 0.17297256
0.019791909 -0.17619598 0.11059363 0.13114926 -0.0074770804 0.00044659976 0.09110794 -0.061272442
-0.009070168 0.05329518 -0.028490188 -0.010497824 0.0059917173 0.14281943 -0.032687288 -0.06489018
-0.09104103 0.23260383 -0.0128615005 0.045287848 -0.18077889 0.13306688 0.0065388293 -0.07333613
-0.018931285 -0.13072646 0.11872163 0.012108368 0.027972056 0.020455446 0.057797946 -0.044094313
0.14898293 0.10647644 0.15742129 -0.1912227 -0.017038519 -0.014816399 -0.083842635 -0.07162851
0.13034798 0.075734496 -0.05562566 -0.07711976 0.16203852 0.034213595 -0.021609599 -0.08617646
-0.026732108 0.09560717 0.09508579 -0.059933323 -0.045505967 0.11090203 -0.008759324 -0.014177845
0.09934824 0.07378081 0.17079948 -0.124247454 0.04344487 -0.06859846 -0.088028274 -0.062145993
-0.0940182 0.09352049 0.06637331 -0.07861934 0.014540419 0.10011384 -0.0881516 -0.03485183
0.032919273 0.11850939 0.010079075 -0.02895212 0.05081918 -0.1165934 0.0135151325 0.003839348
-0.025650937 -0.0742437 0.005399602 0.08940017 0.11001157 -0.12486229 0.029941723 -0.06772807
0.005161421 0.038747437 0.015023835 -0.071960844 0.02427129 0.030024214 -0.09240283 -0.074802905
-0.057986107 -0.0883442 -0.015459126 0.026516149 0.01070711 -0.03572038 -0.006164913 -0.024767928
0.007692723 0.02616929 -0.10484568 0.08795882 0.06272865 -0.071763374 0.06141164 -0.0024016362
00000000: 9dd9 4fbe 0807 0fbd 17e3 3bbd 6add f53d
00000010: 6ff8 2e3e ebd0 083c b0d3 f23c 004d 5dbe
00000020: 10ef 6d3d 5251 383e e03d 2a3e e0ec ad3d
00000030: f68a 003e e382 c63c 8c8e b53d 75b7 37be
00000040: 0a71 02bd 1df4 693e 2939 09be a178 dfbd
00000050: 3096 2f3e 067a adbd 186f c43d 189c 353d
00000060: 81bb 8e3b e015 253e 7ae7 bdbb a5d6 91bd
00000070: 5d65 47bd 196d 9dbd 4293 3d3e 9f2e d7bd
00000080: 2087 6e3e 0f1f 11be 62e1 1dbe 015d a5bd
00000090: 58fd 1b3e f9ea 31bd d6a8 27bc 0213 aebd
000000a0: a628 9cbd 5a23 143e b79b 4dbc 1fe7 a53d
000000b0: cb9d 853d fe19 a5bc ae7a 38bd 7e6c bcbc
000000c0: 7923 c3bb 6ad7 cd3d d0bb b9bd fe3d 103e
000000d0: 2e8a ae3d 176b 14bd 4d6b 51bd e5de a63d
000000e0: 2d4c dbbd d31d 063e 5440 a13d 545c 3f3e
000000f0: fbe2 4fbe 8065 0b3e 8fda 85bd e5e9 713e
00000100: 158f 15bc b73a 933d 1345 603d 379b 4b3d
00000110: 10a6 a63c dabd a73d 42dc bf3d af51 11bd
00000120: 12ab b03c 123a 5e3e 26ce 123e 6cb9 533c
00000130: 9afd 5bbd eca9 bfbd 4ee6 d03d b115 843d
00000140: b0bb e43d 96e4 483e ac81 07be 47d3 1dbd
00000150: 6f1e 343d c96a 4cbd 450e dabd f0f0 b73d
00000160: abcd 9d3d b45d 8a3d 8ee2 c5bb 451a 963d
00000170: 2aee c73d bae1 f8bd 3023 603e 9c20 7c3c
00000180: 1d12 bb3d d1e8 5ebe a63e 4abe 4fdd 86bd
00000190: 0e6f d23d 3432 c7ba 7973 063d b09a 54bd
000001a0: d4b8 28bd a6ad 063e 4e39 37bc c623 a83d
000001b0: 5856 91bd 4c6e 66bd 773d 243d a078 4bbd
000001c0: 3654 9ebd 3378 e7bd 6fd7 06be b820 493e
000001d0: d53c 9d3c 9509 3dbd 7cad 9abd 4c43 d2bc
000001e0: da47 c3bd 6de7 76bc c443 873d 2f33 b03d
000001f0: b5a1 2bbc eb0a 5e3d a573 3e3d 0c00 493d
00000200: cd96 153c 8168 d6bd 1251 35bb 004b 20be
00000210: 9dd6 8cbd d82a 20be ffb0 25be e168 7f3e
00000220: e930 aebb 9746 b3bb 2af5 0dbe fa60 3e3d
00000230: 9e95 b33c a874 bdbb 4c57 cfbc b81f 313e
00000240: a422 a23c b86c 34be ea7e e23d fe4b 063e
00000250: 4c02 f5bb 9b25 ea39 cd96 ba3d d0f8 7abd
00000260: 0b9b 14bc 0c4c 5a3d 4164 e9bc 11ff 2bbc
00000270: 2b56 c43b 423f 123e 1be3 05bd 25e5 84bd
00000280: b873 babd b32f 6e3e 0bb9 52bc c07f 393d
00000290: 1a1e 39be af42 083e ad43 d63b 4131 96bd
000002a0: c815 9bbc 28dd 05be 5324 f33d 2d62 463c
000002b0: a725 e53c 2e92 a73c 8abd 6c3d 3d9c 34bd
000002c0: fb8e 183e 5210 da3d 0c33 213e e2cf 43be
000002d0: 5d94 8bbc 7bc0 72bc b0b5 abbd f8b1 92bd
000002e0: f179 053e b01a 9b3d bbd7 63bd f7f0 9dbd
000002f0: 6ded 253e 8e23 0c3d 9d06 b1bc 497d b0bd
00000300: 4bfd dabc b1cd c33d 57bc c23d a57c 75bd
00000310: 7764 3abd 9a20 e33d 4583 0fbc 314a 68bc
00000320: 1777 cb3d 651a 973d 0fe6 2e3e 7375 febd
00000330: 3ff3 313d 597d 8cbd 2b48 b4bd cc8c 7ebd
00000340: 9d8c c0bd ac87 bf3d bbee 873d 2d03 a1bd
00000350: f03a 6e3c 7c08 cd3d d388 b4bd cbc0 0ebd
00000360: 5cd6 063d 0db5 f23d b422 253c ff2c edbc
00000370: c627 503d 85c8 eebd 936e 5d3c 929d 7b3b
00000380: ea21 d2bc 150d 98bd 25ef b03b 7017 b73d
00000390: bf4d e13d cdb7 ffbd 5848 f53c 04b5 8abd
000003a0: 2321 a93b a2b5 1e3d 8826 763c 3560 93bd
000003b0: 96d4 c63c 57f5 f53c b23d bdbd 4432 99bd
000003c0: d782 6dbd ceed b4bd 4648 7dbc 6538 d93c
000003d0: e06c 2f3c 884f 12bd 0a03 cabb 1ce6 cabc
000003e0: 3d13 fc3b fb60 d63c 55b9 d6bd c123 b43d
000003f0: e177 803d adf8 92bd c68a 7b3d c564 1dbb

actor.2.bias f4 [32]
-0.025473295 0.0037952184 0.011392131 0.07859505 -0.10854307 -0.09135694 0.046175484 -0.09339939
0.11394435 0.11161824 0.094164565 -0.026660144 -0.07845271 0.0015507017 0.084843986 0.07341703
-0.0003491073 -0.0845462 0.05235561 -0.004884886 -0.021071559 -0.06838215 0.076709285 -0.012371465
0.021057168 -0.029936198 0.065990716 0.09214645 0.048091583 0.026029028 0.11256621 -0.02940633
00000000: 5fad d0bc 33b9 783b 10a6 3a3c 71f6 a03d
00000010: d44b debd 5919 bbbd 8122 3d3d 2e48 bfbd
00000020: a85b e93d 1b98 e43d 5ad9 c03d 6066 dabc
00000030: d0ab a0bd ea40 cb3a afc2 ad3d ab5b 963d
00000040: 6308 b7b9 8f26 adbd d672 563d 6511 a0bb
00000050: 439e acbc f10b 8cbd c219 9d3d afb1 4abc
00000060: 1580 ac3c c23c f5bc 2426 873d 47b7 bc3d
00000070: aefb 443d d43a d53c 1d89 e63d 8be5 f0bc

actor.4.weight f4 [1, 32]
0.12541775 0.28263736 -0.2539097 0.15961072 -0.2173045 0.27485445 0.11960851 0.11121923
-0.07813833 0.20332666 0.1749385 0.13570166 -0.09351364 0.318311 0.18988504 -0.0794019
0.15617456 -0.1832875 -0.08025574 0.34492987 0.08175756 0.21649393 0.12827171 0.15333042
-0.08530199 0.22512116 0.2496872 0.33253354 0.15357673 -0.15662211 0.2141515 0.16613658
00000000: 836d 003e d8b5 903e 7400 82be fe70 233e
00000010: 1285 5ebe b9b9 8c3e 4ef5 f43d e8c6 e33d
00000020: fd06 a0bd dd34 503e 1423 333e 60f5 0a3e
00000030: 1484 bfbd a9f9 a23e 3971 423e 779d a2bd
00000040: 39ec 1f3e b8af 3bbe 1f5d a4bd a69a b03e
00000050: 8270 a73d 96b0 5d3e a959 033e a602 1d3e
00000060: cfb2 aebd 2986 663e 00ae 7f3e d641 aa3e
00000070: 3843 1d3e 8c61 20be 884a 5b3e b51f 2a3e

critic.0.weight f4 [64, 4]
0.30423236 0.6763624 0.08489612 0.10234653 -0.52746075 -0.36836523 -0.2404087 -0.10308792
0.29494599 0.73557395 0.11885068 -0.5369806 0.11034062 0.49598312 -0.40021574 0.04898404
-0.016090583 0.0075806202 0.56114334 0.1006871 0.41334596 -0.20690954 -0.016371574 -0.6679069
0.12429142 -0.07164808 -0.5844802 -0.41693923 -0.77371866 -0.45372674 -0.061003137 0.6753328
0.023221565 -0.4984652 0.07002192 0.5043639 -0.20257296 0.0038063186 0.8626788 0.74752676
0.23322088 0.019435424 0.032039568 -0.44439915 -0.5915217 -0.6266969 -0.26132634 -0.7993499
0.276272 0.6615779 -0.19791855 -0.62142885 0.29898846 0.6050886 0.7706208 0.36320046
0.1145381 0.6494718 -0.06514183 0.59122026 0.110413216 0.3902667 0.41912636 0.22446425
0.2591352 -0.21109474 0.26938432 0.8043541 -0.47546914 -0.62792534 -0.22399467 -0.7150753
-0.28548595 -0.1601273 0.595083 0.101004206 0.13002682 0.58859724 0.071214795 -0.5280395
0.4279976 0.22915459 -0.2528674 -0.19707516 -0.29223764 -0.06927148 0.43137324 0.34958774
0.044694837 -0.12856452 0.2692828 0.07382534 -0.10679539 -0.4799988 0.39308235 -0.43600038
-0.3040223 0.5870804 0.8359188 0.6740316 -0.08140086 0.20301077 -0.06327111 -0.6533708
-0.050729416 0.31683546 -0.4092378 0.35647732 -0.5574379 0.34700844 0.60584986 0.7864044
-0.2238296 0.40394744 0.7893788 0.58673805 0.24182457 -0.036608648 0.51604885 0.34397557
-0.4747999 -0.6278441 0.04371259 0.7492965 0.36066332 -0.5305189 -0.24832721 -0.70803815
0.044019163 -0.12271451 0.67475384 0.11112973 0.305973 0.20433904 0.41901344 0.57540125
-0.19616853 0.08229743 -0.44911152 -0.40792295 -0.272925 -0.037904166 0.4693764 0.7175599
-0.09997745 0.3677487 0.41737396 0.5769218 0.082419984 -0.089729905 0.36876693 0.6357968
-0.29470605 0.09228674 0.77341944 0.3745714 -0.49816135 -0.24992684 -0.067294255 0.7709326
-0.2597403 -0.5801102 -0.5322886 -0.5949841 -0.300544 -0.50313133 0.44778788 0.34623274
-0.49045762 -0.3240382 0.07046768 -0.05948082 -0.37896737 -0.5847349 -0.060869053 -0.7130602
-0.08323026 -0.046479072 -0.04667064 -0.40146944 -0.03979746 0.6087641 0.72267395 0.7060565
0.49349123 -0.35765657 -0.8016177 -0.6715205 0.17283772 0.40767434 0.888814 0.553364
-0.40367892 0.23242405 -0.57373065 -0.21210536 0.52436125 0.067377836 -0.80768985 -0.4156882
-0.13648342 0.56973183 0.5194604 0.1991038 -0.14856717 0.06834855 0.36922947 0.4107529
-0.16131963 -0.035953235 0.12325051 0.6735703 -0.4702768 -0.1948568 0.5052915 0.6719072
0.38928628 0.12736829 -0.5697735 -0.53293514 0.19482455 -0.513174 -0.8454038 -0.567906
-0.5497463 -0.20551012 0.35528088 0.39268494 0.23321742 0.4923654 -0.3861385 -0.5358884
0.64829415 -0.07066046 -0.3698916 -0.70331746 -0.5441926 0.413011 -0.5024441 0.24082324
-0.04925673 0.44116879 -0.35836777 -0.58814955 -0.2755838 0.005280237 -0.19207555 -0.07005293
-0.2319312 -0.13433896 0.014172602 -0.10716784 -0.58155 -0.15203002 -0.6844834 -0.2875646
00000000: 58c4 9b3e 1626 2d3f 04de ad3d 0f9b d13d
00000010: ab07 07bf 5e9a bcbe b32d 76be c21f d3bd
00000020: 2903 973e 934e 3c3f fc67 f33d 9077 09bf
00000030: 43fa e13d 80f1 fd3e 14e9 ccbe 7da3 483d
00000040: 66d0 83bc da66 f83b 17a7 0f3f 0a35 ce3d
00000050: 15a2 d33e 18e0 53be ae1d 86bc f2fb 2abf
00000060: 808c fe3d 3bbc 92bd 7fa0 15bf 0f79 d5be
00000070: 6d12 46bf df4e e8be 6dde 79bd 9ce2 2c3f
00000080: 273b be3c d536 ffbe a767 8f3d fe1d 013f
00000090: 496f 4fbe 6e73 793b 85d8 5c3f ea5d 3f3f
000000a0: 74d1 6e3e 0a37 9f3c ec3b 033d 4988 e3be
000000b0: f76d 17bf 356f 20bf 91cc 85be 32a2 4cbf
000000c0: 8673 8d3e 2b5d 293f 29ab 4abe f615 1fbf
000000d0: 0415 993e 16e7 1a3f 6847 453f 69f5 b93e
000000e0: f492 ea3d c943 263f 1469 85bd 365a 173f
000000f0: 5320 e23d 09d1 c73e bb97 d63e f5d9 653e
00000100: 5ead 843e 3829 58be beec 893e 26ea 4d3f
00000110: b170 f3be b7bf 20bf dc5e 65be 2d0f 37bf
00000120: 372b 92be 69f8 23be 5c57 183f 4bdb ce3d
00000130: c025 053e 4fae 163f 10d9 913d 992d 07bf
00000140: 8022 db3e 80a7 6a3e d677 81be 12ce 49be
00000150: 2ca0 95be 35de 8dbd f4dc dc3e 2afd b23e
00000160: ef11 373d 6ba6 03be 6fdf 893e bd31 973d
00000170: 8bb7 dabd 67c2 f5be 1742 c93e 713b dfbe
00000180: d0a8 9bbe e74a 163f c6fe 553f 568d 2c3f
00000190: 7eb5 a6bd 0ee2 4f3e 4994 81bd 4f43 27bf
000001a0: a6c9 4fbd 4238 a23e 9e87 d1be 3284 b63e
000001b0: 40b4 0ebf 17ab b13e fa18 1b3f cc51 493f
000001c0: 9633 65be 33d2 ce3e bb14 4a3f 7734 163f
000001d0: dca0 773e f3f2 15bd c71b 043f 911d b03e
000001e0: f918 f3be 64ba 20bf f90b 333d e5d1 3f3f
000001f0: dda8 b83e 16d0 07bf 7d49 7ebe fd41 35bf
00000200: 704d 343d bf51 fbbd abbc 2c3f fc97 e33d
00000210: 7ea8 9c3e 413e 513e ee88 d63e 7f4d 133f
00000220: 67e0 48be 8e8b a83d f2f1 e5be 47db d0be
00000230: d3bc 8bbe 6641 1bbd 1a52 f03e 01b2 373f
00000240: fac0 ccbd 8f49 bc3e 0ab2 d53e 26b1 133f
00000250: cfcb a83d 50c4 b7bd 05cf bc3e 94c3 223f
00000260: b6e3 96be d500 bd3d d1fe 453f d3c7 bf3e
00000270: 010f ffbe d2ec 7fbe 92d1 89bd d75b 453f
00000280: aefc 84be 1a82 14bf 1144 08bf e150 18bf
00000290: e7e0 99be 37cd 00bf 7444 e53e 6b45 b13e
000002a0: 431d fbbe 56e8 a5be 5c51 903d 29a2 73bd
000002b0: 0308 c2be 30b1 15bf d451 79bd 1d8b 36bf
000002c0: a074 aabd d760 3ebd b729 3fbd 678d cdbe
000002d0: a902 23bd f7d7 1b3f 2901 393f 1ec0 343f
000002e0: e2aa fc3e c31e b7be d136 4dbf c4e8 2bbf
000002f0: 5ffc 303e b1ba d03e 5089 633f 43a9 0d3f
00000300: 01af cebe 9200 6e3e 03e0 12bf 2632 59be
00000310: 8a3c 063f 64fd 893d c3c4 4ebf 15d5 d4be
00000320: 4fc2 0bbe f2d9 113f 5bfb 043f dee1 4b3e
00000330: fe21 18be 53fa 8b3d a50b bd3e 344e d23e
00000340: f930 25be b343 13bd c36a fc3d 1a6f 2c3f
00000350: 1fc8 f0be 8a88 47be c95a 013f 1c02 2c3f
00000360: 8850 c73e d56c 023e addc 11bf 706e 08bf
00000370: 1680 473e 5f5f 03bf 626c 58bf 4a62 11bf
00000380: 2cbc 0cbf 3f71 52be 60e7 b53e 000e c93e
00000390: 8cd0 6e3e 5117 fc3e f2b3 c5be fb2f 09bf
000003a0: 9bf6 253f 6eb6 90bd 6f62 bdbe 9d0c 34bf
000003b0: 3550 0bbf 2e76 d33e 2da0 00bf 5e9a 763e
000003c0: 6dc1 49bd e0e0 e13e fb7b b7be f890 16bf
000003d0: 5219 8dbe d705 ad3b 74af 44be e977 8fbd
000003e0: 5f7f 6dbe 2790 09be 3434 683c d07a dbbd
000003f0: 76e0 14bf c2ad 1bbe 4e3a 2fbf ab3b 93be

critic.0.bias f4 [64]
0.19862686 -0.38960394 -0.15637146 -0.37580076 0.58433646 0.22009346 -0.15486538 -0.36296892
-0.16431224 -0.2816713 -0.2596515 0.47374204 -0.0073473332 -0.25826097 0.29241434 0.56041735
-0.10673574 -0.3615694 -0.38413942 0.38228336 -0.03600226 -0.029197574 -0.6253966 -0.22786893
0.0045068697 -0.32894197 -0.14957188 0.074499905 0.3128894 0.18745096 0.44133046 -0.38060305
-0.51430005 0.19567555 0.39785385 -0.15188359 -0.22589609 -0.09557932 -0.14606227 0.25030348
0.3975151 0.10228676 0.04305157 -0.31962594 -0.4853299 0.18104064 0.27140978 -0.17206968
0.20536964 0.061083704 -0.052329917 0.33848542 -0.12574005 0.07954116 -0.33798838 -0.018916087
0.23368657 0.09586764 0.14032042 0.48671234 -0.19195595 0.50290453 -0.5262101 -0.20248315
00000000: d764 4b3e 2b7a c7be d71f 20be f568 c0be
00000010: 1397 153f 2e60 613e 0895 1ebe 10d7 b9be
00000020: 7841 28be 3837 90be 0bf1 84be 518e f23e
00000030: e6c1 f0bb c83a 84be 55b7 953e 8377 0f3f
00000040: 4598 dabd a01f b9be ecad c4be a5ba c33e
00000050: 1b77 13bd c02f efbc fe19 20bf 7956 69be
00000060: 5dae 933b 156b a8be 5f29 19be 6893 983d
00000070: 0a33 a03e 25f3 3f3e 11f6 e13e 67de c2be
00000080: 2ba9 03bf 2c5f 483e 80b3 cb3e 5f87 1bbe
00000090: 4e51 67be 17bf c3bd 5991 15be c727 803e
000000a0: 1987 cb3e b97b d13d d856 303d 03a6 a3be
000000b0: 297d f8be b862 393e 39f6 8a3e 0933 30be
000000c0: 6b4c 523e e832 7a3d e557 56bd f64d ad3e
000000d0: 00c2 00be 7ae6 a23d d00c adbe e9f5 9abc
000000e0: 884b 6f3e 4156 c43d 28b0 0f3e 5c32 f93e
000000f0: 1a90 44be 5abe 003f b5b5 06bf be57 4fbe

critic.2.weight f4 [32, 64]
0.32483056 -0.18804863 0.28093663 -0.046874847 -0.094394304 0.24378237 0.06308102 -0.33439463
-0.25543094 -0.24836065 0.2409221 0.27429083 0.5423412 0.020002775 -0.05016883 -0.050782416
-0.3416844 -0.07445476 -0.06398852 0.23097068 0.31424338 -0.44528496 -0.032676414 0.06857786
-0.027045932 0.05625976 -0.18688048 -0.1544804 0.16869746 -0.10299436 -0.10853937 0.047362678
-0.094330035 0.0780286 0.15295921 -0.35659963 -0.19694202 -0.25594118 -0.15965797 -0.29253328
0.15726341 -0.29563326 -0.2883542 -0.11628396 0.020056937 0.20286031 0.23685074 -0.19210702
-0.0678152 0.37483054 0.23875238 -0.035142515 -0.3129389 -0.33278045 0.09789075 -0.05172456
-0.15204164 0.33495072 0.2781069 -0.102760226 0.33561045 -0.092997566 0.035290044 -0.16054332
0.08666683 -0.11617325 0.1277028 0.020675771 0.11785881 0.02384669 -0.19388406 -0.054415286
0.053002454 0.12981375 -0.10573382 -0.19326065 -0.018823383 0.17195782 0.26419207 0.058359776
0.18406512 -0.31347924 -0.006394927 0.08366598 0.22750095 0.045597143 -0.103426225 -0.08776629
0.29131126 0.04369563 -0.037294284 0.25827327 0.12558247 0.21651061 0.050044242 -0.30790216
0.17537846 0.25913575 -0.02741036 0.17120945 0.16691388 0.2575022 0.09839432 0.09231505
-0.21681544 -0.07847885 -0.23977698 -0.22218387 -0.17767425 0.13712862 -0.120884195 0.23787099
-0.2304155 -0.0321404 0.19112772 0.21404612 0.122313686 0.08113142 -0.14674287 -0.29553133
-0.0112589495 0.1312386 0.020936903 -0.06495336 -0.041723445 -0.05463638 0.027816337 -0.1777011
0.020430507 0.15550944 0.07688128 0.03750561 -0.205744 -0.004661757 0.17827676 0.080310136
0.023181144 -0.0044627944 0.14237349 -0.0032569158 -0.042544134 0.046905205 -0.13259871 -0.19813637
-0.0358507 0.079696774 0.27307913 -0.08168818 0.019743172 -0.060526185 0.38674912 0.23819257
-0.02023039 -0.04090424 0.048194066 0.09751688 -0.0040959804 -0.015985938 -0.15261091 -0.07247445
0.33391342 -0.08328851 -0.18053234 0.040199567 0.14395478 0.1494476 0.20848244 -0.021471221
0.0061588613 -0.110438004 -0.14941038 0.016904067 0.20260258 0.01968542 0.114146516 -0.019435642
-0.31301108 -0.025113445 -0.0659815 -0.19946794 0.0028217256 -0.01879675 0.08592039 -0.068964906
-0.035567835 -0.013676106 -0.09226045 -0.26816234 0.09021025 -0.08084598 0.31961343 0.01542419
-0.092544705 0.033687886 0.1018248 0.0741888 0.0842234 -0.22613548 -0.031973686 0.14663236
-0.056330424 0.17915691 0.023019899 -0.26386812 -0.08960741 0.065694295 0.10734524 0.080508396
0.042709753 -0.06630859 0.04932841 -0.12212463 0.15287513 -0.09047966 -0.032070376 -0.14365812
0.09126763 -0.14300014 0.07422331 0.11809115 0.057787556 -0.0015922084 -0.057336535 -0.03142568
-0.13140759 0.11329689 0.060199734 0.19738476 0.04912402 0.20370151 -0.13458076 -0.103918664
-0.081976704 0.009783743 -0.0840036 0.07892218 -0.03229297 -0.026905678 -0.0965565 0.005690007
0.04648155 -0.08381688 -0.057771046 0.14511733 0.01933882 -0.10210123 0.066162646 0.004019492
-0.03907997 0.042659637 -0.13256511 0.14824824 0.049161 0.0014056045 -0.026049428 0.0031178072
00000000: 3150 a63e d28f 40be edd6 8f3e d7ff 3fbd
00000010: cd51 c1bd 16a2 793e 9f30 813d c635 abbe
00000020: d8c7 82be 4152 7ebe 48b4 763e d96f 8c3e
00000030: dfd6 0a3f dcdc a33c d57d 4dbd 3901 50bd
00000040: 42f1 aebe bd7b 98bd 6a0c 83bd 9483 6c3e
00000050: 82e4 a03e 64fc e3be b4d7 05bd 8d72 8c3d
00000060: 6e8f ddbc a270 663d 995d 3fbe 1c30 1ebe
00000070: 07bf 2c3e b5ee d2bd e449 debd 5eff 413d
00000080: 1b30 c1bd 75cd 9f3d 57a1 1c3e 3a94 b6be
00000090: 2bab 49be b90a 83be 617d 23be ecc6 95be
000000a0: a909 213e 3e5d 97be 29a3 93be 4926 eebd
000000b0: 724e a43c 9dba 4f3e 0089 723e b4b7 44be
000000c0: b2e2 8abd cae9 bf3e 817b 743e 99f1 0fbd
000000d0: 8739 a0be 3362 aabe f27a c83d 22dd 53bd
000000e0: ceb0 1bbe a97e ab3e 0764 8e3e f473 d2bd
000000f0: 22d5 ab3e 8275 bebd 4b8c 103d 7865 24be
00000100: 617e b13d 3eec edbd 86c4 023e 3c60 a93c
00000110: f65f f13d 225a c33c 8b89 46be 90e2 5ebd
00000120: 1a19 593d e5ed 043e f98a d8bd 1fe6 45be
00000130: 7f33 9abc b615 303e 2f44 873e a90a 6f3d
00000140: 917b 3c3e 5a80 a0be 898c d1bb 1259 ab3d
00000150: 02f6 683e 12c4 3a3d 21d1 d3bd d0be b3bd
00000160: c026 953e 30fa 323d e4c1 18bd 653c 843e
00000170: b198 003e f5b4 5d3e 31fb 4c3d 5aa5 9dbe
00000180: 6996 333e 71ad 843e b18b e0bc 8851 2f3e
00000190: 79eb 2a3e 54d7 833e f682 c93d ac0f bd3d
000001a0: de04 5ebe 85b9 a0bd 1988 75be 2b84 63be
000001b0: 3df0 35be 726b 0c3e 2292 f7bd 7494 733e
000001c0: 0af2 6bbe a7a5 03bd fcb6 433e e82e 5b3e
000001d0: 997f fa3d 3b28 a63d c343 16be e24f 97be
000001e0: 7577 38bc 6963 063e de83 ab3c 4406 85bd
000001f0: 34e6 2abd 66ca 5fbd 16df e33c 47f7 35be
00000200: e15d a73c de3d 1f3e ef73 9d3d 7c9f 193d
00000210: 8eae 52be a7c1 98bb 2f8e 363e a479 a43d
00000220: 62e6 bd3c a23c 92bb 5bca 113e fb71 55bb
00000230: c242 2ebd ac1f 403d f5c7 07be 43e4 4abe
00000240: 2fd8 12bd 1038 a33d 07d1 8b3e 224c a7bd
00000250: 6fbc a13c 4eea 77bd fb03 c63e c1e8 733e
00000260: 34ba a5bc 348b 27bd 2467 453d eeb6 c73d
00000270: 9337 86bb f1f4 82bc 0946 1cbe 7c6d 94bd
00000280: b3f6 aa3e 2b93 aabd 78dd 38be 4da8 243d
00000290: e268 133e cb08 193e 6c7c 553e 6ae4 afbc
000002a0: 46d0 c93b 522d e2bd 09ff 18be 667a 8a3c
000002b0: 0d77 4f3e 5143 a13c a6c5 e93d 7f37 9fbc
000002c0: fd42 a0be b6ba cdbc 4f21 87bd 5341 4cbe
000002d0: b3ec 383b a4fb 99bc 08f7 af3d 793d 8dbd
000002e0: 94af 11bd bf11 60bc 0cf3 bcbd 934c 89be
000002f0: 27c0 b83d 9492 a5bd 5fa4 a33e beb5 7c3c
00000300: 1488 bdbd 4ffc 093d 8589 d03d 4cf0 973d
00000310: 517d ac3d 0f90 67be d7f6 02bd cb26 163e
00000320: bbba 66bd e974 373e 3a94 bc3c b919 87be
00000330: 1784 b7bd bb8a 863d d2d7 db3d 96e1 a43d
00000340: 6cf0 2e3d cccc 87bd 960c 4a3d 7a1c fabd
00000350: 4c8b 1c3e 664d b9bd 3a5c 03bd 1d1b 13be
00000360: 86ea ba3d a16e 12be 6402 983d c6d9 f13d
00000370: a5b2 6c3d a6b1 d0ba b7d9 6abd 37b8 00bd
00000380: b68f 06be 3308 e83d ff93 763d 3b1f 4a3e
00000390: 4536 493d 2197 503e 8acf 09be 4fd3 d4bd
000003a0: 67e3 a7bd fe4b 203c 140a acbd f4a1 a13d
000003b0: a245 04bd 4c69 dcbc 6abf c5bd 3d73 ba3b
000003c0: 7063 3e3d 2fa8 abbd 55a1 6cbd a399 143e
000003d0: 726c 9e3c 731a d1bd 4880 873d f1b5 833b
000003e0: 5212 20bd dfbb 2e3d 26bf 07be 63ce 173e
000003f0: 0b5d 493d 433c b83a 9c65 d5bc 2054 4c3b

critic.2.bias f4 [32]
-0.058046386 0.16774441 -0.12394771 0.192591 0.07047145 -0.0008404465 -0.16288996 -0.15375812
-0.16768584 -0.16508518 0.108262904 0.09385666 0.05512295 0.07608982 0.09933295 0.047557265
0.020380033 -0.011114089 -0.22680388 0.08778175 0.23468702 -0.18555485 0.029407905 -0.032850895
-0.2494431 -0.025331914 -0.004157407 0.08532908 -0.10163098 -0.12454052 0.16893338 -0.086969085
00000000: 0cc2 6dbd 31c5 2b3e 4cd8 fdbd 9336 453e
00000010: 5653 903d 6951 5cba a0cc 26be c572 1dbe
00000020: d6b5 2bbe 170c 29be f1b8 dd3d ec37 c03d
00000030: 9ac8 613d fbd4 9b3d 136f cb3d 68cb 423d
00000040: 07f4 a63c de17 36bc 473f 68be ebc6 b33d
00000050: cb51 703e 1702 3ebe d9e8 f03c a98e 06bd
00000060: 036e 7fbe e084 cfbc dc3a 88bb 03c1 ae3d
00000070: e723 d0bd 1a0f ffbd dffc 2c3e d91c b2bd

critic.4.weight f4 [1, 32]
0.32154992 0.20897676 0.1710815 -0.24378744 -0.32478458 -0.35891813 0.26720792 0.29840466
-0.33872035 -0.30830872 0.44323593 0.29223138 -0.3906629 0.25257277 -0.22572634 -0.4456441
-0.28524092 0.17949122 0.2930066 -0.23707475 -0.19701773 0.21348464 0.32658678 -0.2953399
0.26281804 -0.2550183 -0.32517773 -0.2585031 -0.3108031 0.2290762 0.31639814 -0.38670996
00000000: 31a2 a43e 01fe 553e fd2f 2f3e 6aa3 79be
00000010: 2a4a a6be 1ec4 b7be 7acf 883e 7fc8 983e
00000020: c16c adbe a4da 9dbe d2ef e23e 5a9f 953e
00000030: f804 c8be 3851 813e ce24 67be 772b e4be
00000040: 190b 92be 8ccc 373e f604 963e b9c3 72be
00000050: 04bf 49be b89b 5a3e 6236 a73e cb36 97be
00000060: 1690 863e c291 82be b27d a6be 855a 84be
00000070: 9521 9fbe f492 6a3e f0fe a13e d9fe c5be
